DQN/cartpole_100.pth (torch, 8250 bytes, 6 tensors)

0.weight f4 [64, 4]
0.022132147 0.32535145 -0.3699809 -0.30326098 0.4807865 -0.06349111 -0.12929265 -0.3460074
-0.17275332 0.15366186 -0.14886473 0.57907337 0.17219567 -0.3617168 0.261625 0.5437099
0.31105912 0.491656 0.10291436 -0.37505734 -0.13885899 -0.0627588 -0.3343528 -0.021441987
0.044881105 -0.23126838 0.19638894 0.25851426 -0.004935194 0.2727821 -0.05765863 0.07143922
-0.17173022 0.2892733 -0.29790944 -0.08615446 0.21268928 0.05122349 -0.10344081 0.2537361
-0.349544 -0.34710464 -0.52902925 -0.15636206 -0.14496835 0.10823647 0.24465738 -0.53728974
-0.08498909 0.16095735 -0.0989712 -0.16374277 0.2750237 -0.18829241 -0.1927156 -0.40578496
0.35787702 -0.34033525 0.38427192 -0.09454167 0.18307854 -0.1334234 0.284824 0.4585652
-0.26332766 -0.20790492 -0.53075093 -0.43828717 0.307217 0.46167642 0.41657305 -0.20830986
-0.32107836 0.50580376 -0.49642593 0.072088934 0.08891763 -0.18083656 0.263107 0.34141648
-0.32577175 0.4443381 -0.15802947 -0.34683067 -0.16375554 0.3345217 -0.3997285 0.2762823
-0.25935078 0.10622446 0.12550588 0.42885458 -0.24834889 -0.4107609 0.09402784 0.16689046
-0.12284317 0.025584199 0.26006144 -0.51492697 0.39728665 -0.59869665 0.49981517 0.21519507
-0.27951404 0.44205144 -0.3466025 -0.011430104 -0.09578605 -0.34631798 0.068995304 0.336156
0.24928132 -0.16676496 -0.073526934 -0.5248088 0.53196335 0.38753024 -0.2889761 -0.29598773
-0.38912556 -0.28073174 -0.05816629 0.1238619 0.40960985 0.16991146 -0.05828069 -0.09876965
-0.4019534 0.4504916 0.314126 0.23429078 0.15284479 -0.08521128 -0.53390723 -0.45236215
-0.1960041 -0.14615911 -0.23714054 -0.18224633 0.12892053 3.2644057e-05 0.033059858 -0.348584
0.16932541 0.12518609 -0.30232555 0.27812755 -0.32543436 -0.022919968 0.21495827 -0.25556523
0.19484867 0.5039542 -0.13811685 0.11898482 0.048471194 0.42003265 0.09267426 0.14335243
0.04889713 0.22045906 0.3277981 0.02804174 0.20630382 -0.38310656 0.4887898 -0.43878087
-0.5831286 -0.007276155 -0.14244033 0.4211882 -0.19432718 0.2740165 0.23879392 -0.07897462
-0.2791003 -0.21730769 -0.3188656 0.19056326 -0.0025825114 -0.3828063 -0.017017642 0.16752319
0.40279385 -0.40616876 0.084808774 0.21648721 -0.30660897 0.4209962 0.3381298 -0.3026283
0.25879213 0.013567635 -0.17349865 -0.042370483 -0.2565378 0.42368862 -0.47087753 0.1630651
-0.41185144 -0.1756728 -0.23139374 -0.466492 -0.15158552 -0.47616374 -0.2978357 -0.28457582
-0.29444718 -0.14467934 0.14766541 0.24175665 0.12439086 -0.03152381 0.2744543 0.456406
0.20345055 -0.26456773 0.27709535 -0.08259562 0.49859256 -0.14068185 -0.37495735 -0.37426028
0.35592094 0.53998166 -0.21610881 0.41818663 -0.3602735 -0.3577429 0.28802997 -0.074015915
0.03217318 0.51977664 -0.27046007 -0.031340018 0.2949231 0.41803557 -0.14059137 -0.27700707
0.38204136 -0.31576714 -0.5502202 -0.4557864 0.43066582 -0.43522185 -0.33100596 -0.44492656
-0.35029152 -0.39259058 -0.24961336 0.0563384 -0.26684654 0.26919279 -0.46872842 -0.3404238
00000000: 7a4e b53c 7794 a63e 236e bdbe 0645 9bbe
00000010: a629 f63e a107 82bd 4b65 04be e227 b1be
00000020: 3fe6 30be 8959 1d3e ff6f 18be 273e 143f
00000030: 1054 303e f232 b9be b6f3 853e 9230 0b3f
00000040: 2443 9f3e 56ba fb3e c4c4 d23d 8407 c0be
00000050: 0d31 0ebe b087 80bd 4a30 abbe 1ba7 afbc
00000060: 40d5 373d 9ed1 6cbe 2f1a 493e fb5b 843e
00000070: 68b7 a1bb 18aa 8b3e 752b 6cbd ba4e 923d
00000080: 0cda 2fbe a11b 943e 9687 98be c071 b0bd
00000090: 38cb 593e b9cf 513d c7d8 d3bd b3e9 813e
000000a0: 6ef7 b2be b3b7 b1be 766e 07bf 601d 20be
000000b0: 9572 14be 15ab dd3d 7787 7a3e d28b 09bf
000000c0: c30e aebd 01d2 243e 6ab1 cabd 2fac 27be
000000d0: e8cf 8c3e bacf 40be 3d57 45be 0cc3 cfbe
000000e0: a83b b73e 6c40 aebe 4abf c43e 109f c1bd
000000f0: f178 3b3e 25a0 08be 74d4 913e 0fc9 ea3e
00000100: e2d2 86be 07e5 54be 4bdf 07bf 2d67 e0be
00000110: 8c4b 9d3e da60 ec3e 1049 d53e 2e4f 55be
00000120: 6264 a4be 5b7c 013f 8a2b febe 5da3 933d
00000130: 721a b63d 382d 39be f6b5 863e 24ce ae3e
00000140: 8ecb a6be 4980 e33e 7ad2 21be ca93 b1be
00000150: 88af 27be 6e46 ab3e 37a9 ccbe e074 8d3e
00000160: a0c9 84be 368c d93d 9d84 003e d492 db3e
00000170: 2c4f 7ebe 414f d2be ab91 c03d 55e5 2a3e
00000180: 3395 fbbd f495 d13c c626 853e 41d2 03bf
00000190: 2869 cb3e 2f44 19bf c6e7 ff3e 195c 5c3e
000001a0: 771c 8fbe 9154 e23e e275 b1be 5545 3bbc
000001b0: 7a2b c4bd 9750 b1be 694d 8d3d a41c ac3e
000001c0: 9a43 7f3e 6fc4 2abe 4a95 96bd df59 06bf
000001d0: c02e 083f 5d6a c63e adf4 93be b48b 97be
000001e0: 773b c7be 12bc 8fbe c73f 6ebd 4fab fd3d
000001f0: 62b8 d13e 45fd 2d3e bcb7 6ebd be47 cabd
00000200: d6cc cdbe d6a6 e63e 20d5 a03e ece9 6f3e
00000210: 5883 1c3e 4083 aebd 25ae 08bf 039c e7be
00000220: 4cb5 48be bcaa 15be f8d4 72be c89e 3abe
00000230: be03 043e 4aeb 0838 c669 073d 9a79 b2be
00000240: a463 2d3e c830 003e 6aca 9abe bc66 8e3e
00000250: 559f a6be a8c2 bbbc 051e 5c3e 72d9 82be
00000260: 6986 473e 2403 013f 816e 0dbe 50ae f33d
00000270: bb89 463d 850e d73e 01cc bd3d fbca 123e
00000280: 5b48 483d 05c0 613e 27d5 a73e cbb7 e53c
00000290: 4f41 533e 8b26 c4be a842 fa3e e3a7 e0be
000002a0: ea47 15bf d06c eebb e1db 11be fba5 d73e
000002b0: b4fd 46be e44b 8c3e 6586 743e 72bd a1bd
000002c0: 3ce6 8ebe e885 5ebe 5a42 a3be 0423 433e
000002d0: 5a3f 29bb 30ff c3be 9568 8bbc 338b 2b3e
000002e0: ff3a ce3e 5af5 cfbe 39b0 ad3d d3ae 5d3e
000002f0: dafb 9cbe d08c d73e 591f ad3e 19f2 9abe
00000300: 6780 843e c94a 5e3c a1a9 31be ac8c 2dbd
00000310: ec58 83be b7ed d83e dc16 f1be 8afa 263e
00000320: 31de d2be 92e3 33be 7bf2 6cbe 0ad8 eebe
00000330: 3c39 1bbe bccb f3be ec7d 98be ecb3 91be
00000340: c8c1 96be d226 14be 9a35 173e 0e8f 773e
00000350: a3c0 fe3d 1c1f 01bd 4685 8c3e 0cae e93e
00000360: 5755 503e 6c75 87be 71df 8d3e e427 a9bd
00000370: 8647 ff3e e70e 10be 69fa bfbe 0b9f bfbe
00000380: 453b b63e 3d3c 0a3f a14b 5dbe 8f1c d63e
00000390: c575 b8be 142a b7be aa78 933e a895 97bd
000003a0: 06c8 033d 1510 053f be79 8abe 645e 00bd
000003b0: 2900 973e c208 d63e 2ff7 0fbe dfd3 8dbe
000003c0: ed9a c33e 3bac a1be 3bdb 0cbf d65c e9be
000003d0: 3b80 dc3e 66d5 debe 9d79 a9be 6acd e3be
000003e0: 6959 b3be a201 c9be a59a 7fbe 18c3 663d
000003f0: 1ca0 88be a3d3 893e 2cfd efbe 074c aebe

0.bias f4 [64]
0.1973316 0.2797532 -0.06696003 0.06755174 -0.24251139 0.16007935 -0.3236897 0.41941932
-0.16373734 0.24895345 0.21871816 -0.38566524 -0.28627464 -0.35084394 -0.4317692 -0.0672157
-0.022005733 0.55123407 0.3333571 0.43111634 0.14463162 0.24229756 -0.019714842 -0.34024072
0.17131373 -0.16475305 -0.27929753 -0.24401875 0.5527612 0.35015026 0.47447667 0.17019866
-0.25834602 0.1750956 -0.3225661 0.40358987 -0.2960785 0.40855312 -0.25522363 0.09087268
0.49964017 -0.03309389 0.10644008 -0.21746038 -0.42185348 -0.124255896 0.0620013 0.47593838
0.444238 0.065507516 -0.13346298 -0.2433967 0.3319674 -0.0014975712 0.2671338 0.03692007
0.18033196 0.19656585 -0.18818502 0.34572482 -0.34126776 0.53115344 0.22062458 0.30038008
00000000: 4c11 4a3e d03b 8f3e 5722 89bd 9158 8a3d
00000010: e854 78be d7eb 233e a8ba a5be 21be d63e
00000020: c3aa 27be a7ed 7e3e a7f7 5f3e ea75 c5be
00000030: 9792 92be d1a1 b3be da10 ddbe 63a8 89bd
00000040: 5e45 b4bc ad1d 0d3f c8ad aa3e 48bb dc3e
00000050: 501a 143e da1c 783e 0581 a1bc 0834 aebe
00000060: de6c 2f3e 06b5 28be 1600 8fbe 0de0 79be
00000070: c281 0d3f e546 b33e 9bee f23e 8f48 2e3e
00000080: ee45 84be 434c 333e 6227 a5be 55a3 ce3e
00000090: 9a97 97be e02d d13e acac 82be 751b ba3d
000000a0: d6d0 ff3e 758d 07bd 42fd d93d efad 5ebe
000000b0: 2efd d7be e079 febd 13f5 7d3d 32ae f33e
000000c0: 2a73 e33e ce28 863d 85aa 08be fc3c 79be
000000d0: a2f7 a93e 274a c4ba c3c5 883e 8039 173d
000000e0: f1a8 383e 8f48 493e 93b3 40be d802 b13e
000000f0: a6ba aebe acf9 073f 69eb 613e 6bcb 993e

2.weight f4 [16, 64]
0.06296634 -0.031171544 0.118535295 0.03607357 -0.09712739 0.103695236 0.10549785 0.14162707
-0.14737667 -0.002511357 -0.032618117 0.0013912267 -0.07510709 -0.060815964 0.09491947 -0.029292546
-0.13913436 0.017913716 0.11559351 -0.0036267885 -0.11000282 0.16714245 0.1171542 -0.006448022
0.12454721 -0.043211374 0.026819037 0.059345376 -0.011749803 0.048858345 0.03439407 0.12009043
-0.0691033 -0.11433287 -0.048109576 -0.055169143 0.12242778 -0.01420531 -0.08123864 0.049372908
0.16861965 -0.12539957 0.18813463 -0.17512733 -0.11437151 0.19439505 0.097519256 0.061634712
0.12802087 -0.025719995 -0.10949767 0.023882523 0.14405861 0.20130694 -0.007816148 -0.020440651
-0.0014650316 0.15635371 -0.0081589045 0.0902945 -0.19363466 0.106441654 0.020278897 0.08918566
-0.034961015 -0.020653466 0.18796355 0.17230514 0.07197236 0.044205535 0.024119027 0.11911643
0.07749674 0.18460196 0.11550096 0.103662215 -0.19666879 -0.13634345 0.026341543 0.098892994
0.12331594 0.08082949 0.09529596 0.11696702 0.11331006 0.20918187 0.2185821 0.026382124
0.0098325955 0.0018892736 -0.02173828 0.21615982 0.08205776 0.14511348 0.18084103 -0.04579439
-0.035578102 0.13956848 -0.033770263 0.04319196 0.049698412 0.19526769 -0.09588598 0.0825728
0.12530947 0.09095607 -0.013364893 -0.13621122 -0.057261378 0.10804266 0.05212439 0.09241679
0.20237678 0.17629889 -0.017625013 0.10421826 0.024414228 -0.024021715 0.095885 0.024551604
0.12067638 0.15336326 0.053485192 0.028979216 -0.048137736 0.036699723 0.0062575997 0.1176158
-0.021935232 0.09428661 0.09864979 0.11334276 0.1580755 0.1205613 0.032597393 0.10801942
-0.035230633 -0.03516243 0.22923753 0.08596898 -0.0009231274 -0.10764854 -0.11155701 0.13204454
-0.031337045 -0.030300252 0.18441412 0.037775423 -0.012196898 0.050673254 0.18783374 -0.003553289
0.11032968 0.18622777 0.086338215 0.20527864 0.11398144 0.09223396 0.008670114 0.093855545
-0.110128924 0.16487604 -0.019498646 0.11514573 -0.014052406 0.095913276 -0.15258773 0.015012201
0.13970627 -0.03748672 0.1935473 -0.03455271 0.0679349 0.030083079 0.00057925703 0.18534839
0.032017335 0.1395721 0.056078658 0.10743146 0.072632656 0.11599754 -0.017466063 0.1361035
0.0015833111 0.07790477 0.109530136 0.18222313 -0.08907999 0.20137389 -0.00025365537 -0.02022303
-0.06126344 -0.09528183 -0.07376364 -0.0911002 -0.02314267 0.042948063 0.044344455 -0.08174136
0.09984236 0.09762475 0.009963829 0.038396705 0.022310384 0.048689928 0.0044148415 0.08969073
-0.034410138 -0.048935276 -0.09386221 -0.025099644 0.08796507 -0.023476435 0.04318274 -0.047250956
0.0629467 -0.028272508 -0.032536674 -0.0017378352 0.06710605 0.028609965 0.017116893 -0.059898842
-0.05485162 0.09487756 -0.122240305 0.09796914 0.020445421 -0.116929755 0.06642777 -0.03518326
0.06996715 -0.022640849 -0.07353911 0.08185554 0.0153018385 -0.070905745 -0.06769016 -0.066587284
0.07254129 0.122662134 0.052133244 0.030521601 -0.05039159 0.0473586 -0.107177034 0.0732395
-0.08278292 0.04465352 0.13863848 0.0011920565 0.05507532 -0.10884544 0.09488899 0.056632992
00000000: 7ff4 803d 775b ffbc a2c2 f23d e1c1 133d
00000010: baea c6bd 2b5e d43d 420f d83d b006 113e
00000020: e9e9 16be 9495 24bb 939a 05bd d259 b63a
00000030: bfd1 99bd 291a 79bd 2465 c23d ecf6 efbc
00000040: 3d79 0ebe c9bf 923c 4abc ec3d 6aaf 6dbb
00000050: 2949 e1bd 6427 2b3e 8bee ef3d ee49 d3bb
00000060: 9c12 ff3d 69fe 30bd 99b3 db3c 2314 733d
00000070: 3f82 40bc b01f 483d cce0 0c3d f9f1 f53d
00000080: 0886 8dbd 5a27 eabd 8c0e 45bd 0af9 61bd
00000090: 6abb fa3d 63bd 68bc 7260 a6bd 3f3b 4a3d
000000a0: a1aa 2c3e bf68 00be 5da6 403e 9454 33be
000000b0: 9c3b eabd 7f0f 473e 2db8 c73d ae74 7c3d
000000c0: e717 033e bdb2 d2bc 5040 e0bd 48a5 c33c
000000d0: 1a84 133e 6823 4e3e 4d0f 00bc 2773 a7bc
000000e0: 4e06 c0ba 301b 203e edac 05bc 53ec b83d
000000f0: 2a48 46be 15fe d93d ee1f a63c f9a6 b63d
00000100: 4833 0fbd 7531 a9bc 8479 403e c270 303e
00000110: 3f66 933d dd10 353d 4495 c53c 51f3 f33d
00000120: 9cb6 9e3d 4c08 3d3e c48b ec3d db4c d43d
00000130: 8b63 49be 9e9d 0bbe 38ca d73c 6988 ca3d
00000140: 118d fc3d ef89 a53d 872a c33d 688c ef3d
00000150: 1b0f e83d c633 563e fcd3 5f3e 531f d83c
00000160: e518 213c 81a1 f73a 7a14 b2bc 0059 5d3e
00000170: e60d a83d a198 143e 642e 393e e692 3bbd
00000180: 58ba 11bd 0aeb 0e3e b052 0abd 0dea 303d
00000190: 9090 4b3d 41f4 473e de5f c4bd ee1b a93d
000001a0: 2051 003e 2d47 ba3d 6df8 5abc f47a 0bbe
000001b0: e88a 6abd 7845 dd3d 6280 553d 0445 bd3d
000001c0: dc3b 4f3e b287 343e 5562 90bc 6270 d53d
000001d0: 5900 c83c 30c9 c4bc 5b5f c43d 7220 c93c
000001e0: 2e25 f73d 420b 1d3e 4a13 5b3d d265 ed3c
000001f0: 132c 45bd 7352 163d 8d0c cd3b 8de0 f03d
00000200: 84b1 b3bc 5719 c13d e708 ca3d 4020 e83d
00000210: 8bde 213e d8e8 f63d d884 053d 4939 dd3d
00000220: ff4d 10bd 7b06 10bd 3ebd 6a3e 8110 b03d
00000230: 08fe 71ba d676 dcbd 0078 e4bd af36 073e
00000240: 465b 00bd 3c38 f8bc 0ed7 3c3e 67ba 1a3d
00000250: 80d5 47bc c28e 4f3d 7d57 403e 4cde 68bb
00000260: 87f4 e13d 7eb2 3e3e 17d2 b03d 9034 523e
00000270: 1a6f e93d 29e5 bc3d 180d 0e3c 5637 c03d
00000280: 468b e1bd 44d5 283e a0bb 9fbc 86d1 eb3d
00000290: 103c 66bc 2e6e c43d f53f 1cbe bcf5 753c
000002a0: 290f 0f3e ad8b 19bd 4331 463e 2487 0dbd
000002b0: 7421 8b3d ca70 f63c 48d9 173a f8cb 3d3e
000002c0: 9c24 033d fdeb 0e3e bcb2 653d 0605 dc3d
000002d0: 6ec0 943d 1e90 ed3d fd14 8fbc b75e 0b3e
000002e0: 1b87 cf3a 898c 9f3d 5651 e03d b398 3a3e
000002f0: 926f b6bd f534 4e3e 0cfd 84b9 c5aa a5bc
00000300: 5fef 7abd 1f23 c3bd 6411 97bd be92 babd
00000310: b295 bdbc 4fea 2f3d 88a2 353d 0468 a7bd
00000320: 277a cc3d 7cef c73d 543f 233c dd45 1d3d
00000330: 44c4 b63c 176f 473d 60aa 903b c6af b73d
00000340: a5f1 0cbd 5b70 48bd d53a c0bd c59d cdbc
00000350: 0827 b43d a751 c0bc 63e0 303d 388a 41bd
00000360: 33ea 803d bf9b e7bc 2d45 05bd 13c8 e3ba
00000370: e66e 893d 725f ea3c ba38 8c3c 7d58 75bd
00000380: 18ac 60bd 2b4f c23d 2059 fabd 0ba4 c83d
00000390: 287d a73c de78 efbd 480b 883d 521c 10bd
000003a0: f04a 8f3d 4d79 b9bc ac9b 96bd e1a3 a73d
000003b0: 90b4 7a3c 0837 91bd 23a1 8abd ea5e 88bd
000003c0: 8790 943d 4936 fb3d ab89 553d 7008 fa3c
000003d0: 6967 4ebd 17fb 413d a27f dbbd 97fe 953d
000003e0: 178a a9bd 9ce6 363d 3ff7 0d3e c73e 9c3a
000003f0: a996 613d 5cea debd 2955 c23d fff7 673d

2.bias f4 [16]
0.10357016 0.14187427 0.103553385 0.01336873 0.042962607 -0.04787906 0.060090803 0.1177467
0.11602542 -0.108550385 -0.07728337 -0.028909452 -0.09362137 0.063091256 0.037559025 -0.033629972
00000000: 981c d43d 7d47 113e cc13 d43d 8508 5b3c
00000010: 8ff9 2f3d d51c 44bd c621 763d 2f25 f13d
00000020: bc9e ed3d aa4f debd be46 9ebd 84d3 ecbc
00000030: 90bc bfbd fd35 813d 7ed7 193d 95bf 09bd

4.weight f4 [2, 16]
-0.124340326 0.08961213 0.31096774 -0.18362567 0.012560912 -0.09617102 0.120093524 0.14443398
0.13183524 -0.13747472 0.19922578 -0.119166255 -0.03575613 -0.07034881 0.09118065 -0.12760021
0.30054498 0.27181137 0.21693994 -0.22070308 -0.046902794 -0.19046849 0.058082957 0.09806051
0.26793873 -0.19512819 -0.18947557 -0.014699451 -0.22833805 0.28679192 -0.15213798 -0.05018971
00000000: 24a6 febd 9086 b73d 2a37 9f3e 5e08 3cbe
00000010: 49cc 4d3c 50f5 c4bd 98f3 f53d 80e6 133e
00000020: d1ff 063e 2cc6 0cbe d801 4c3e 700d f4bd
00000030: 0575 12bd 0913 90bd ecbc ba3d a1a9 02be
00000040: 08e1 993e dc2a 8b3e 8125 5e3e fdff 61be
00000050: 251d 40bd 2c0a 43be 65e8 6d3d f3d3 c83d
00000060: 442f 893e afcf 47be e205 42be f7d5 70bc
00000070: 73d1 69be 64d6 923e 0fca 1bbe ba93 4dbd

4.bias f4 [2]
-0.029271279 0.016966602
00000000: 52ca efbc 8bfd 8a3c
