DQN/cartpole_5000.pth (torch, 8260 bytes, 6 tensors)

0.weight f4 [64, 4]
-0.6404302 0.35508785 0.5883255 0.1027013 0.3056417 -0.22045012 0.06712356 -0.15433942
-0.039303284 0.043903444 -0.60646534 0.1405218 0.32682303 -0.51698923 -0.17695534 -0.19225055
0.78459483 0.8698007 1.9247816 0.61509883 -1.0811428 -0.7980006 -2.1673734 -0.5779608
-0.37469432 -0.030468615 -0.896175 -0.30447593 -0.31710804 0.22182766 0.22272514 0.12633716
0.32068887 0.46440938 3.5118754 0.5235348 -0.00924579 0.0684247 0.16267717 0.2817892
-0.09976124 -0.9717933 -2.7095182 -0.91532487 0.5630379 0.32363498 1.3940506 0.30853465
0.66498375 0.17039739 -0.42330676 0.008663052 0.103167355 -0.82177967 -2.0196524 -0.6072233
-0.32423264 -0.43903935 0.9590021 -0.14807875 0.20893376 -0.35143438 -0.14730707 0.00727057
-0.39180744 -0.75636417 -0.8668402 -0.5693005 -0.039155744 0.25529015 0.6704652 0.029927665
-0.53718364 0.4185639 -0.37691098 0.17006661 -0.0017027445 -0.0433652 0.4111467 0.21838719
-0.67383015 0.89960176 1.7983855 0.26502895 -0.508593 0.27550006 -0.1584697 0.26208878
0.010658861 0.01965716 -0.1671416 0.31314301 -1.1657298 -0.57444084 -0.48190334 -0.3879391
-1.2537643 -1.1007196 -0.9101596 -0.67205393 2.937854 -0.4876707 -1.0298404 -0.58410794
0.56662667 0.53636897 0.05974352 0.2900117 -0.34185505 -0.6503921 -1.396406 -0.60990924
0.09064845 -0.36089388 0.02977515 -0.31056055 0.19010073 0.074764065 0.0020626653 0.062122487
-1.0085547 -0.5291693 0.3276714 -0.29829687 1.2625054 1.2251213 1.5136677 0.795235
0.13729975 0.0930199 2.0926785 0.37494665 1.0439534 -0.19194262 -2.202079 -0.20774578
-0.7483335 -0.5936234 -1.3186119 -0.4417254 0.04989702 -0.17190708 0.080917224 -0.11417349
-1.0321188 -0.2378364 1.1006662 -0.045905177 -0.70371825 -0.250193 0.2745149 -0.15002297
0.623496 0.49169418 2.8509834 0.5654213 -0.3892487 0.36551282 0.59598255 0.16785863
-0.20783304 0.17690337 0.62579125 0.096033454 0.29445133 -0.4253341 0.5907534 -0.21360488
-1.1068289 -0.9331162 -1.4820718 -0.5606248 0.20473483 0.41573507 0.36385632 0.11771207
-0.7109182 -0.42687812 -1.3315113 -0.39001113 1.7541555 0.05702918 -0.29996496 -0.013709244
1.1276377 0.02977218 0.48617083 0.00548637 -0.6180224 0.20756932 0.43929702 -0.14135121
0.030327382 -0.011563873 0.10752581 0.003466794 -0.41917762 0.3468234 -0.3138866 0.37550816
0.34688422 -0.43131575 -1.5526068 -0.39245218 -0.6581559 -0.9051667 -2.1536882 -0.76606923
-0.92100894 -0.35564265 0.23165697 -0.22506735 2.0856442 1.0303918 1.3273524 0.6540346
-0.13160075 -0.29945973 0.58271134 -0.087225825 1.066884 0.19611 0.5835291 0.12760448
0.8174558 1.3744638 1.4985391 0.9673239 -1.2418162 -1.0177467 -1.8312256 -0.45375746
1.6058161 0.26854843 -1.866213 -0.09027678 -0.060652886 0.16654648 0.19501851 0.05014347
0.22762372 -0.74896073 -2.1474957 -0.8662426 0.2933145 -0.46393755 -0.1841726 -0.3920977
-1.4523224 -1.0653818 -0.35979453 -0.58372766 -0.51670057 -0.8071085 -2.8668315 -0.6046784
00000000: 3cf3 23bf 13ce b53e 809c 163f 0f55 d23d
00000010: 127d 9c3e adbd 61be 1478 893d 270b 1ebe
00000020: 7bfc 20bd 19d4 333d 5041 1bbf f2e4 0f3e
00000030: 5955 a73e 6859 04bf c833 35be 54dd 44be
00000040: 35db 483f 42ab 5e3f 3e5f f63f 1e77 1d3f
00000050: e362 8abf c449 4cbf 3fb6 0ac0 3df5 13bf
00000060: efd7 bfbe 5199 f9bc ba6b 65bf 45e4 9bbe
00000070: fc5b a2be ca26 633e 0f12 643e 875e 013e
00000080: 5531 a43e 11c7 ed3e 91c2 6040 6006 063f
00000090: a77b 17bc 4022 8c3d d894 263e ad46 903e
000000a0: 9f4f ccbd 72c7 78bf bf68 2dc0 bb52 6abf
000000b0: 4023 103f 7cb3 a53e 4070 b23f 41f8 9d3e
000000c0: 603c 2a3f a77c 2e3e aabb d8be 79ef 0d3c
000000d0: 6849 d33d 2760 52bf fc41 01c0 fc72 1bbf
000000e0: d201 a6be c4c9 e0be 2981 753f f5a1 17be
000000f0: bbf2 553e 35ef b3be aad7 16be f63d ee3b
00000100: fc9a c8be 15a1 41bf 3de9 5dbf adbd 11bf
00000110: c661 20bd 64b5 823e 9ba3 2b3f dd2a f53c
00000120: de84 09bf 024e d63e 7afa c0be f125 2e3e
00000130: a02e dfba b59f 31bd d281 d23e e4a0 5f3e
00000140: 2280 2cbf 4d4c 663f 7f31 e63f e0b1 873e
00000150: 2733 02bf 580e 8d3e e245 22be 8030 863e
00000160: 81a2 2e3c 0d08 a13c 2b27 2bbe 4854 a03e
00000170: a236 95bf 8e0e 13bf 09bc f6be f49f c6be
00000180: 597b a0bf 61e4 8cbf 3800 69bf ba0b 2cbf
00000190: cd05 3c40 f9af f9be cfd1 83bf 1988 15bf
000001a0: 720e 113f 7a4f 093f 9fb5 743d 6a7c 943e
000001b0: a007 afbe 1980 26bf 6fbd b2bf 0323 1cbf
000001c0: e5a5 b93d 15c7 b8be 04eb f33c cb01 9fbe
000001d0: c4a9 423e e71d 993d c82d 073b 2674 7e3d
000001e0: 5218 81bf a477 07bf 8cc4 a73e 5eba 98be
000001f0: c799 a13f c6d0 9c3f ddbf c13f 8594 4b3f
00000200: 4e98 0c3e 3881 be3d 72ee 0540 02f9 bf3e
00000210: 44a0 853f 9b8c 44be ddee 0cc0 4fbb 54be
00000220: c992 3fbf b4f7 17bf 46c8 a8bf d529 e2be
00000230: d160 4c3d 6908 30be eeb7 a53d cad3 e9bd
00000240: 781c 84bf 638b 73be a1e2 8c3f 1107 3cbd
00000250: e126 34bf 4c19 80be 388d 8c3e 9f9f 19be
00000260: 6f9d 1f3f 57bf fb3e 8376 3640 73bf 103f
00000270: 9b4b c7be 7f24 bb3e 5092 183f 22e3 2b3e
00000280: 2fd2 54be 2826 353e db33 203f 30ad c43d
00000290: 53c2 963e 64c5 d9be 9d3b 173f 3dbb 5abe
000002a0: 92ac 8dbf b4e0 6ebf 87b4 bdbf 1b85 0fbf
000002b0: 02a6 513e 3adb d43e 604b ba3e 0713 f13d
000002c0: bcfe 35bf c58f dabe f66e aabf 8aaf c7be
000002d0: 2b88 e03f 6e97 693d 0295 99be bd9c 60bc
000002e0: 6f56 903f c9e4 f33c 62eb f83e 02c7 b33b
000002f0: b736 1ebf 0d8d 543e 8aeb e03e 5fbe 10be
00000300: 2171 f83c 6676 3dbc 7e36 dc3d 2733 633b
00000310: 739e d6be d692 b13e bfb5 a0be 9b42 c03e
00000320: cf9a b13e 6bd5 dcbe d2bb c6bf 7eef c8be
00000330: e87c 28bf 01b9 67bf 07d6 09c0 1d1d 44bf
00000340: 3ec7 6bbf cb16 b6be 7c37 6d3e 0e78 66be
00000350: 327b 0540 e1e3 833f afe6 a93f d06e 273f
00000360: 59c2 06be c952 99be 922c 153f 74a3 b2bd
00000370: a88f 883f 0fd1 483e 2a62 153f c0aa 023e
00000380: c944 513f 6eee af3f 21d0 bf3f 8aa2 773f
00000390: d5f3 9ebf 8645 82bf 9a65 eabf e652 e8be
000003a0: 628b cd3f 2e7f 893e 11e0 eebf 08e3 b8bd
000003b0: 296f 78bd 298b 2a3e efb2 473e 3d63 4d3d
000003c0: 3116 693e e4bb 3fbf 9270 09c0 13c2 5dbf
000003d0: 512d 963e 3989 edbe be97 3cbe 08c1 c8be
000003e0: b3e5 b9bf 6e5e 88bf fd36 b8be 2d6f 15bf
000003f0: 7d46 04bf aa9e 4ebf 2b7a 37c0 34cc 1abf

0.bias f4 [64]
0.7646184 0.84307414 0.6025416 0.7481525 0.004893947 0.004405015 -0.6388053 0.99900496
0.673933 0.8241358 0.2720607 -0.0918056 -0.03672734 -0.16523989 -0.06923479 0.7176351
0.037667476 1.1468403 0.90484786 1.0132635 0.64378846 0.79490316 0.6922242 -0.23523511
0.22295256 0.5277564 -0.24147591 0.25149786 1.1404978 0.9583666 0.8172464 0.24988826
-0.59319025 0.29746017 0.037826564 1.0132022 -0.2700667 0.8743935 -0.0959029 0.6534874
1.0817748 0.6318617 0.3760053 -0.21771277 -0.2754658 0.23406056 0.6871609 1.0957512
1.0384254 0.6584729 0.29358017 -0.10827083 0.7550426 0.3897649 0.8263504 0.6316063
0.12287257 -0.5408229 0.23969568 0.9477978 -0.49417344 1.0667309 0.70036143 0.26700753
00000000: 08be 433f b5d3 573f 2b40 1a3f ec86 3f3f
00000010: 675d a03b f257 903b bf88 23bf cabe 7f3f
00000020: e086 2c3f 90fa 523f 8a4b 8b3e 9304 bcbd
00000030: 686f 16bd a534 29be f8ca 8dbd efb6 373f
00000040: 3649 1a3d aacb 923f 1ca4 673f 9eb2 813f
00000050: 52cf 243f c67e 4b3f 9b35 313f 79e1 70be
00000060: ad4d 643e 0b1b 073f 7645 77be 54c4 803e
00000070: d5fb 913f 8357 753f 0f37 513f b5e2 7f3e
00000080: 51db 17bf b34c 983e 07f0 1a3d 9cb0 813f
00000090: 2f46 8abe 41d8 5f3f bd68 c4bd f34a 273f
000000a0: 9977 8a3f b0c1 213f c483 c03e 19f0 5ebe
000000b0: da09 8dbe 92ad 6f3e c7e9 2f3f 9341 8c3f
000000c0: 20eb 843f ae91 283f 2450 963e 19bd ddbd
000000d0: 794a 413f 448f c73e b38b 533f f3b0 213f
000000e0: 9da4 fb3d 5f73 0abf c972 753e e0a2 723f
000000f0: 4d04 fdbe a38a 883f e34a 333f 36b5 883e

2.weight f4 [16, 64]
0.49228606 0.44179612 0.35632542 0.4663761 1.0955307 -1.281889 -0.94571054 0.60085744
0.21034552 0.4861898 0.41430974 -1.7802426 -0.7805904 -2.1873262 -0.45868188 0.27547252
-0.7562434 0.47374737 0.5086073 0.5022163 0.42281196 0.614868 0.4434865 -0.5345003
0.90446323 -0.23056588 -0.6719302 0.3004135 0.50407547 0.4303842 0.58598936 0.7456327
-3.2796593 0.9187304 -1.241153 0.4277385 -1.2189108 0.51782715 0.8908842 0.50692385
0.6568287 0.45489255 1.1232101 -0.9988683 -0.3793347 0.78718895 0.6766374 0.5193438
0.6014096 0.33233425 -0.8823089 -0.44803986 0.7173453 0.6434006 0.5659127 0.4999794
0.8320921 0.19503982 -0.32962188 0.4851159 -1.9008079 0.64636767 1.0446281 1.2612413
0.39504355 0.48871496 0.4907296 0.59423923 1.1714694 -1.137336 -1.0460801 0.60555565
-0.05989201 0.6946957 0.59749395 -1.6035279 -0.7539035 -1.7555615 -0.5754288 0.41516477
-0.7178137 0.5546887 0.5616838 0.63422596 0.6138253 0.6962039 0.592795 -0.686581
0.6462643 0.1829658 -0.82764125 0.45310885 0.62975955 0.5593797 0.72112846 0.62498736
-3.9828331 0.94340193 -1.014243 0.561915 -1.5932714 0.74049187 0.61350846 0.5359028
0.6215664 0.59078836 0.86171204 -0.99720764 -0.5637485 0.7564568 0.67201245 0.56797534
0.7070521 0.61826175 -1.0429088 -0.34096086 0.61049104 0.5477631 0.64852566 0.58375114
1.0409948 0.2823708 -0.09701382 0.44917768 -1.255712 0.61117876 0.907661 1.142233
0.42405885 0.624182 0.47258112 0.5185666 1.1391405 -0.84919125 -0.9502088 0.61007375
-0.6176671 0.47969383 0.74994624 -1.4666994 -0.36648276 -1.2103745 -0.7015584 0.46724907
-0.9492553 0.45287862 0.71151155 0.5479668 0.46783397 0.56468505 0.5889736 -0.78536695
0.6080073 0.74773484 -0.70923215 0.50373113 0.6784637 0.5339603 0.52168703 0.76092833
-4.791897 0.8028879 -0.73993224 0.655696 -1.9551021 0.64373994 0.31294414 0.46118695
0.6345718 0.41114584 0.9806819 -0.8583414 -0.53787786 0.74902976 0.6297611 0.6742501
0.5511631 0.65742445 -1.1007223 -0.27140844 0.657534 0.79134965 0.5002975 0.7471661
0.9751441 0.2956206 0.14541017 0.62496454 -0.8737761 0.78864574 0.7418161 0.8696047
0.08277679 0.31346247 0.26551214 0.28929418 -0.5079653 0.48505536 0.18917179 -0.006892908
0.43965954 0.08103649 -1.2564341 1.7624123 0.23547305 0.031451736 1.252043 0.39167678
0.478041 0.11607611 0.07313318 -0.05688864 0.32149315 -0.17972718 0.8184891 -0.83539647
-0.47227722 -0.8331523 0.82107913 -1.1894006 0.41964698 0.37048537 0.03919342 0.016311068
1.6095972 -0.74725884 -0.33746257 0.4191422 0.28022614 0.01317892 -0.16675386 -0.20451988
0.10049474 0.42058697 0.08145966 0.8429126 -1.5784028 0.18343925 0.7386036 0.0024605584
0.29873192 0.30017772 -0.49965632 0.51127326 -0.2912766 0.4960362 -0.1499697 0.57156897
-0.7941101 -0.10741 -0.065806516 0.27329487 1.1327345 0.33021277 0.045735113 -1.5306076
00000000: eb0c fc3e 1a33 e23e 4970 b63e d9c8 ee3e
00000010: 5a3a 8c3f f014 a4bf 161a 72bf cbd1 193f
00000020: d164 573e dfed f83e 6820 d43e fdde e3bf
00000030: c6d4 47bf 27fd 0bc0 5ad8 eabe bc0a 8d3e
00000040: 2b99 41bf 048f f23e 1734 023f 3f91 003f
00000050: cf7a d83e fd67 1d3f aa10 e33e 03d5 08bf
00000060: e78a 673f 7619 6cbe 9e03 2cbf cccf 993e
00000070: 170b 013f 515b dc3e 6603 163f c9e1 3e3f
00000080: f0e5 51c0 ea31 6b3f 1ade 9ebf 8a00 db3e
00000090: 4505 9cbf 5290 043f fd10 643f c3c5 013f
000000a0: ed25 283f ade7 e83e 59c5 8f3f d5b5 7fbf
000000b0: 2838 c2be 3785 493f 1c38 2d3f b7f3 043f
000000c0: fbf5 193f b727 aa3e ffde 61bf 7b65 e5be
000000d0: f1a3 373f e7b5 243f a8df 103f 4dfd ff3e
000000e0: fd03 553f 85b8 473e 33c4 a8be 1c61 f83e
000000f0: ac4d f3bf 5a78 253f 60b6 853f 5b70 a13f
00000100: 2643 ca3e d938 fa3e e940 fb3e 1020 183f
00000110: b6f2 953f 3a94 91bf f4e5 85bf b205 1b3f
00000120: 5351 75bd 94d7 313f 5df5 183f 6740 cdbf
00000130: d2ff 40bf 3db6 e0bf 4d4f 13bf 7a90 d43e
00000140: a3c2 37bf 1400 0e3f 82ca 0f3f a25c 223f
00000150: a823 1d3f 6b3a 323f 6ac1 173f c6c3 2fbf
00000160: 9471 253f 635b 3b3e 4ce0 53bf e2fd e73e
00000170: ec37 213f 8233 0f3f e09b 383f 2cff 1f3f
00000180: bde6 7ec0 ca82 713f b7d2 81bf a9d9 0f3f
00000190: 51f0 cbbf e090 3d3f e40e 1d3f ed30 093f
000001a0: fa1e 1f3f e83d 173f 2999 5c3f 0049 7fbf
000001b0: d251 10bf 27a7 413f 0209 2c3f d566 113f
000001c0: 5e01 353f 6746 1e3f 097e 85bf 6c92 aebe
000001d0: 2449 1c3f 343a 0c3f c705 263f b770 153f
000001e0: 513f 853f e892 903e 2faf c6bd 9efa e53e
000001f0: 2cbb a0bf 3676 1c3f 795c 683f b134 923f
00000200: 3e1e d93e 64ca 1f3f 27f6 f13e c8c0 043f
00000210: 5bcf 913f 9964 59bf e240 73bf cb2d 1c3f
00000220: 6e1f 1ebf 6e9a f53e 7afc 3f3f cebc bbbf
00000230: a1a3 bbbe 8ded 9abf 5599 33bf 453b ef3e
00000240: 6502 73bf b5df e73e 9f25 363f 8d47 0c3f
00000250: ef87 ef3e 338f 103f f9c6 163f cf0d 49bf
00000260: 5ea6 1b3f 8d6b 3f3f 3d90 35bf 86f4 003f
00000270: ccaf 2d3f 9fb1 083f 488d 053f 33cc 423f
00000280: 3857 99c0 108a 4d3f 336c 3dbf b1db 273f
00000290: c940 fabf 24cc 243f 373a a03e b220 ec3e
000002a0: 4c73 223f b581 d23e f80d 7b3f 43bc 5bbf
000002b0: 5db2 09bf 6ac0 3f3f 0638 213f a89b 2c3f
000002c0: 0619 0d3f f84c 283f 78e4 8cbf 0cf6 8abe
000002d0: 2654 283f e495 4a3f 7f13 003f 4746 3f3f
000002e0: 0ba3 793f 955b 973e 67e6 143e adfd 1f3f
000002f0: caaf 5fbf b0e4 493f a9e7 3d3f 6a9e 5e3f
00000300: e186 a93d 277e a03e 35f1 873e 5e1e 943e
00000310: 040a 02bf 2d59 f83e 40b6 413e e7dd e1bb
00000320: 0e1b e13e 76f6 a53d d5d2 a0bf ba96 e13f
00000330: d91f 713e 89d3 003d f242 a03f dc89 c83e
00000340: cac1 f43e 50b9 ed3d d9c6 953d 1004 69bd
00000350: c09a a43e 670a 38be 8088 513f 8bdc 55bf
00000360: 52ce f1be 7849 55bf 3e32 523f 473e 98bf
00000370: f8db d63e 42b0 bd3e 4889 203d ca9e 853c
00000380: 4807 ce3f 5b4c 3fbf e5c7 acbe ce99 d63e
00000390: cd79 8f3e 66ec 573c 86c1 2abe a96d 51be
000003a0: 30d0 cd3d 2d57 d73e 52d4 a63d 1fc9 573f
000003b0: 1a09 cabf 80d7 3b3e 2015 3d3f 5241 213b
000003c0: 64f3 983e e5b0 993e f4d2 ffbe cee2 023f
000003d0: 3522 95be 75f8 fd3e a891 19be 5852 123f
000003e0: cd4a 4bbf c6f9 dbbd 91c5 86bd 4eed 8b3e
000003f0: 72fd 903f a611 a93e be54 3b3d f3ea c3bf

2.bias f4 [16]
0.5983077 0.66471165 0.63983965 0.18330482 -0.014298269 -0.015575737 0.60758966 0.6591872
0.64238864 -0.25812033 0.42547473 0.10871428 0.047477745 0.56333 0.037559025 0.10340646
00000000: b22a 193f 8b2a 2a3f 88cc 233f 42b4 3b3e
00000010: 4943 6abc 6031 7fbc ff8a 1b3f 7ec0 283f
00000020: 9573 243f 5928 84be d3d7 d93e 98a5 de3d
00000030: 0678 423d 6536 103f 7ed7 193d c4c6 d33d

4.weight f4 [2, 16]
0.5929149 0.78653646 1.0305206 -0.84538347 -1.5374801 -1.4770455 0.8396019 0.82846236
0.84747773 -1.879105 0.88922423 -0.7399332 -0.8915076 0.6244938 0.09118065 -0.7209907
0.98159367 0.921492 0.8435056 -0.9956714 -1.682266 -1.2602706 0.6873153 0.7263028
0.91724193 -1.6328299 0.42802495 -0.86787593 -0.8818393 0.9578171 -0.15213798 -1.2032716
00000000: 45c9 173f 745a 493f 19e8 833f 0d6b 58bf
00000010: 26cc c4bf d40f bdbf 26f0 563f 1c16 543f
00000020: 4df4 583f 8386 f0bf 33a4 633f 436c 3dbf
00000030: d839 64bf d3de 1f3f ecbc ba3d d992 38bf
00000040: b949 7b3f e6e6 6b3f fcef 573f 52e4 7ebf
00000050: 7e54 d7bf 8c50 a1bf e5f3 2f3f fbee 393f
00000060: 5ed0 6a3f 9200 d1bf 1626 db3e 1e2d 5ebf
00000070: 38c0 61bf 8033 753f 0fca 1bbe ce04 9abf

4.bias f4 [2]
0.5085991 0.5290017
00000000: 8d33 023f a86c 073f
