DQN/cartpole_1000.pth (torch, 8260 bytes, 6 tensors)

0.weight f4 [64, 4]
-0.6723571 0.40074655 0.5641877 -0.18811178 0.5982592 -0.1707324 -0.3385062 -0.28845727
0.19335702 0.029183088 -0.85851413 0.5617194 0.5351714 -0.47998157 -0.35751477 0.5387781
1.0918201 0.522551 -0.45671266 -0.19432354 -0.061374415 -0.04226192 -0.44862676 -0.053186215
-0.8013097 -0.21468227 1.3099161 0.4889895 -0.1925982 0.26066318 0.13564071 0.119176336
0.58030146 0.3045793 -1.1092523 -0.2710158 0.1527732 0.14383031 -0.03264614 0.18657894
-0.15522097 -0.31078961 -0.6869121 -0.19018085 0.4202837 -0.008976763 -0.65861785 -0.71282285
0.5801796 0.10981782 -0.9439614 -0.29061753 0.9588408 -0.24090683 -1.0554665 -0.5415248
0.36336097 -0.33483607 0.3787802 -0.100041114 0.576478 -0.28754574 -0.3547147 0.4856525
0.2967484 -0.36442536 -1.4020965 -0.44811875 0.15209898 0.32907623 0.49034926 -0.08350735
-0.31599763 0.4602136 -0.55495435 0.10432343 0.13922341 0.0021850737 0.2375983 0.17561969
-0.84898466 0.75629556 0.6902699 -0.36848384 -0.37628895 0.32488537 -0.17904249 0.32308263
0.23310785 0.07403659 -0.61254627 0.33132485 -1.1634629 -0.45097637 1.2204987 0.4373053
-0.686831 0.1845047 1.133554 -0.44490612 0.84696525 -0.7652426 -0.18030666 0.2260131
0.47783938 0.42241606 -1.2047504 -0.14914216 0.41749877 -0.50958157 -0.7362825 0.31411916
0.3910898 -0.28048792 -0.32378894 -0.47108027 0.5074024 0.16550708 -0.36984268 -0.110862635
-0.43467477 -0.17849298 0.0050778617 0.041325204 0.5682016 0.09476988 -0.30737022 -0.07614924
-0.6641973 0.39613375 0.76824266 0.41686323 0.30320626 -0.28943992 -0.812553 -0.32953134
-0.21044452 -0.13504526 -0.267066 -0.27426416 0.34067154 -0.09436458 -0.26431656 -0.31341237
-0.7057009 0.15797931 0.80825233 0.50168645 -0.31954715 -0.014076125 0.19357403 -0.25925994
0.91746116 0.5359883 -0.8449536 0.17697884 -0.3547576 0.40265498 0.56150275 0.2464534
-0.098237194 0.22780241 0.4847509 0.0549179 0.5014629 -0.4650321 0.10786762 -0.41924432
-0.17103861 -0.054909654 -0.81325 0.35088485 0.6187925 0.32762435 -0.5623067 -0.14652964
-1.1901977 -0.23667249 0.83979714 0.4388598 0.61937267 -0.5248588 -0.9013426 0.13774545
0.9647592 -0.45492947 -0.70983243 0.11416428 -0.4406533 0.260806 0.38610658 -0.15050752
0.20655775 0.0038372301 -0.16312693 -0.033402286 -0.19666679 0.40764433 -0.5800011 0.1621514
0.24227357 -0.20621033 -1.1072187 -0.73753643 -0.3438923 -0.6157159 -0.4890741 -0.5009337
-0.4706061 -0.027177392 0.35036716 0.1629816 0.6176095 -0.07324984 -0.47795242 0.35882246
-0.006358119 -0.23758006 0.5264984 -0.055513296 0.90045446 -0.33861414 -0.88804394 -0.29793143
0.07246412 0.553777 0.087387785 0.4580569 -0.6007359 -0.2969543 0.55041194 -0.094461545
0.9805337 0.6086092 -1.0389637 0.04690234 0.15063524 0.22751063 -0.07773981 -0.09038853
1.0952495 -0.36979032 -1.4369645 -0.5901453 0.56710255 -0.42100286 -0.5245329 -0.49014276
-0.20150703 -0.24930914 -0.43371788 -0.100385934 -0.32205427 0.06293434 -0.5275042 -0.16997333
00000000: 981f 2cbf a72e cd3e 9b6e 103f 60a0 40be
00000010: 8427 193f 79d4 2ebe af50 adbe acb0 93be
00000020: 62ff 453e 5f11 ef3c 95c7 5bbf d8cc 0f3f
00000030: fe00 093f 25c0 f5be 2d0c b7be 5ded 093f
00000040: c3c0 8b3f e7c5 053f 3ed6 e9be c0fc 46be
00000050: bd63 7bbd d61a 2dbd 68b2 e5be cad9 59bd
00000060: a222 4dbf abd5 5bbe 55ab a73f d55c fa3e
00000070: 7638 45be a575 853e 66e5 0a3e b912 f43d
00000080: a38e 143f d1f1 9b3e fbfb 8dbf 95c2 8abe
00000090: 9470 1c3e 4148 133e f5b7 05bd 8d0e 3f3e
000000a0: 3ff2 1ebe d11f 9fbe 79d9 2fbf c5be 42be
000000b0: 6d2f d73e 4613 13bc 2e9b 28bf 8f7b 36bf
000000c0: a686 143f 2ae8 e03d 74a7 71bf d2cb 94be
000000d0: 9776 753f 48b0 76be 8719 87bf 5fa1 0abf
000000e0: 730a ba3e a26f abbe 7aef c13e 5be2 ccbd
000000f0: 1094 133f 3239 93be 2a9d b5be 72a7 f83e
00000100: 68ef 973e f695 babe e677 b3bf d26f e5be
00000110: d6bf 1b3e ae7c a83e 0f0f fb3e e705 abbd
00000120: 71ca a1be 1ea1 eb3e 7d11 0ebf 86a7 d53d
00000130: 9590 0e3e 7433 0f3b f84c 733e a6d5 333e
00000140: 0f57 59bf 969c 413f 87b5 303f eaa9 bcbe
00000150: f2a8 c0be 6057 a63e ea56 37be 166b a53e
00000160: d3b3 6e3e 7fa0 973d d5cf 1cbf 69a3 a93e
00000170: 5aec 94bf 60e6 e6be 4d39 9c3f 7be6 df3e
00000180: 28d4 2fbf cdee 3c3e 4c18 913f bcca e3be
00000190: b7d2 583f f0e6 43bf 4fa2 38be fa6f 673e
000001a0: 5da7 f43e eb46 d83e 4335 9abf b9b8 18be
000001b0: 66c2 d53e f073 02bf 037d 3cbf 3ad4 a03e
000001c0: ec3c c83e 1d9c 8fbe aac7 a5be 6f31 f1be
000001d0: 20e5 013f b07a 293e 055c bdbe f30b e3bd
000001e0: b18d debe ddc6 36be 3164 a63b 9e44 293d
000001f0: a975 113f b616 c23d a15f 9dbe 22f4 9bbd
00000200: d608 2abf 0bd2 ca3e 8dab 443f 196f d53e
00000210: da3d 9b3e 7831 94be 7903 50bf 55b8 a8be
00000220: c57e 57be 4e49 0abe e0bc 88be 5a6c 8cbe
00000230: 806c ae3e 3842 c1bd 8054 87be 9677 a0be
00000240: d0a8 34bf 54c5 213e a0e9 4e3f 866e 003f
00000250: af9b a3be 8c9f 66bc 4538 463e b8bd 84be
00000260: bcde 6a3f 8736 093f e14e 58bf f139 353e
00000270: caa2 b5be cb28 ce3e a5be 0f3f 485e 7c3e
00000280: 9530 c9bd 0945 693e 4531 f83e 98f1 603d
00000290: df5f 003f b018 eebe b3e9 dc3d 31a7 d6be
000002a0: bf24 2fbe f2e8 60bd 2731 50bf 2ea7 b33e
000002b0: 2f69 1e3f 61be a73e 55f3 0fbf de0b 16be
000002c0: 6658 98bf 465a 72be f2fc 563f 3bb2 e03e
000002d0: 358f 1e3f 255d 06bf 63be 66bf 250d 0d3e
000002e0: 75fa 763f 84ec e8be 94b7 35bf f6ce e93d
000002f0: 4f9d e1be 5d88 853e c3af c53e a51e 1abe
00000300: e083 533e 0a7a 7b3b bf0a 27be d6d0 08bd
00000310: 0563 49be c2b6 d03e f47a 14bf 040b 263e
00000320: 9016 783e cd28 53be 58b9 8dbf 30cf 3cbf
00000330: a712 b0be 8f9f 1dbf ec67 fabe 313d 00bf
00000340: 48f3 f0be 1fa3 debc 5363 b33e a6e4 263e
00000350: a81b 1e3f 0304 96bd 2eb6 f4be 94b7 b73e
00000360: c557 d0bb 3048 73be 99c8 063f e961 63bd
00000370: 2f84 663f d55e adbe d956 63bf 788a 98be
00000380: 1268 943d 54c4 0d3f 5ef8 b23d 6f86 ea3e
00000390: d4c9 19bf 650a 98be cce7 0c3f 0e75 c1bd
000003a0: 4204 7b3f d0cd 1b3f c3fc 84bf ab1c 403d
000003b0: 2040 1a3e 8cf8 683e 0d36 9fbd 9f1d b9bd
000003c0: 2331 8c3f 2855 bdbe 74ee b7bf c313 17bf
000003d0: a22d 113f b08d d7be ca47 06bf fef3 fabe
000003e0: dc57 4ebe e54a 7fbe 4510 debe 2497 cdbd
000003f0: 4ce4 a4be b8e3 803d 840a 07bf 7d0d 2ebe

0.bias f4 [64]
0.42736304 0.63249135 0.306845 0.42083043 0.06778466 0.48433566 -0.42810658 0.7271923
-0.122531734 0.5778761 0.56562686 -0.42337558 -0.36831927 -0.45904064 -0.4372675 0.32571086
0.27413467 0.88943744 0.6626521 0.76509064 0.34318963 0.54390675 0.35846642 -0.35263094
0.41673338 0.1342426 -0.28221086 -0.007657004 0.9222982 0.7292864 0.79349875 0.5209811
-0.27179912 0.57234764 -0.30803964 0.7870919 -0.38165528 0.7254735 -0.37315375 0.38906687
0.81244844 0.37334383 0.36691183 -0.12597683 -0.54904884 0.1458488 0.3807087 0.8359703
0.7657613 0.40824893 -0.057146885 0.021803364 0.647999 0.39990103 0.57807696 0.50307405
0.47941816 0.5044683 0.045054514 0.7040878 -0.45326656 0.8437208 0.56726587 0.67019373
00000000: 54cf da3e f4ea 213f ca1a 9d3e 1677 d73e
00000010: afd2 8a3d d8fa f73e c930 dbbe 4629 3a3f
00000020: ebf1 fabd b0ef 133f eccc 103f afc4 d8be
00000030: 5894 bcbe 6007 ebbe 87e1 dfbe 93c3 a63e
00000040: 615b 8c3e 2cb2 633f 91a3 293f fbdc 433f
00000050: 8db6 af3e 793d 0b3f e988 b73e 0b8c b4be
00000060: 145e d53e e476 093e f17d 90be 9be7 fabb
00000070: bc1b 6c3f 83b2 3a3f bc22 4b3f 045f 053f
00000080: 4129 8bbe 6085 123f 5fb7 9dbe db7e 493f
00000090: 5268 c3be a2b8 393f 020e bfbe c633 c73e
000000a0: 9ffc 4f3f ec26 bf3e dedb bb3e 1200 01be
000000b0: 778e 0cbf 6359 153e 40ec c23e 2602 563f
000000c0: ef08 443f 0106 d13e da12 6abd f89c b23c
000000d0: 43e3 253f d4bf cc3e dafc 133f 76c9 003f
000000e0: 4c76 f53e d624 013f 158b 383d 193f 343f
000000f0: 8e12 e8be 16fe 573f 5638 113f d191 2b3f

2.weight f4 [16, 64]
0.33600575 0.16769055 0.2333477 0.23527142 -0.32790765 0.39007622 -0.26127532 0.4217167
-0.37261632 0.292515 0.2559227 -0.25309533 -0.37420192 -0.521812 0.09140509 0.08036304
-0.61336297 0.2562657 0.35651976 0.29602677 0.21324027 0.47524357 0.2816633 -0.25072765
0.4966216 0.031238683 -0.20850796 0.10119256 0.21855296 0.21074882 0.3563 0.3159685
-0.5411422 0.050284933 -0.12195206 0.17618729 -0.49055856 0.27766722 -0.47477007 0.3526213
0.4586846 0.10120664 0.47637942 -0.37720835 -0.48177662 0.31618744 0.3569613 0.3225439
0.3886122 0.20246011 -0.45063847 -0.0073118224 0.47442657 0.37041193 0.31526726 0.065571226
0.2917033 0.52263355 -0.38262042 0.28006878 -0.85110086 0.33666483 0.32488626 0.3038263
0.21578117 0.25519046 0.33083013 0.37593842 -0.12767483 0.3674404 -0.52405983 0.4153958
-0.24218334 0.50143063 0.44459832 -0.22081004 -0.59699756 -0.72132057 0.022789024 0.2286555
-0.43540993 0.34923136 0.37960258 0.43280602 0.4096279 0.5197297 0.41837436 -0.39904192
0.32672244 0.08642964 -0.31318125 0.25048563 0.37398788 0.35772207 0.50320333 0.2273649
-0.5548024 0.35941765 -0.14649297 0.33184072 -0.66593325 0.5029016 -0.6211973 0.36285618
0.4240576 0.3231987 0.26941904 -0.387022 -0.58466685 0.2756222 0.36187056 0.35970217
0.50196826 0.4537982 -0.4620473 0.018513728 0.34461004 0.18038969 0.41587627 0.19675079
0.42259383 0.48571473 -0.27478048 0.25032988 -0.8310812 0.34279186 0.33941698 0.35378382
0.22248232 0.43071505 0.27476004 0.31378883 0.03190651 0.46015513 -0.58396685 0.40895933
-0.382792 0.2871672 0.5755984 -0.256827 -0.45210314 -0.7552617 -0.11511579 0.29003993
-0.55779207 0.25871208 0.4991137 0.35204995 0.27528825 0.35129783 0.40187296 -0.497758
0.38800287 0.31382272 -0.2134958 0.2984377 0.45169616 0.3498938 0.31847796 0.42745954
-0.6535517 0.44116786 -0.15765345 0.44662046 -0.7670791 0.40924248 -0.7454426 0.2691667
0.43756574 0.23013331 0.45178965 -0.30468878 -0.51714146 0.26409853 0.32888037 0.4547768
0.35375926 0.45796028 -0.40261897 -0.021850212 0.37038624 0.33610746 0.28727153 0.40605503
0.3002221 0.36941102 -0.123626076 0.43194255 -0.929769 0.5604721 0.33955514 0.23682816
-0.053392515 0.14737125 0.1012531 0.045216005 0.22471206 0.10002749 -0.5136414 -0.16379446
0.38734064 -0.10798749 0.23566595 0.37427643 0.44981155 0.669751 0.0044148415 0.14449695
0.56381655 -0.0458927 -0.033893615 -0.24962704 0.059004564 -0.30987456 0.636487 -0.5245915
-0.005158546 -0.031276517 0.25990075 -0.014733086 0.27261725 0.20816514 -0.14256275 0.093932055
-0.2237271 0.44017518 -0.022226501 0.25864246 -0.61941576 -0.11963983 0.6389258 -0.39218935
-0.06665278 0.18104397 0.47829515 0.33143976 -0.587353 0.22622052 0.61959386 -0.08131605
0.13351968 0.15882313 0.4776017 0.10306829 -0.39177686 0.5688999 -0.33920524 0.5321344
-0.51424074 -0.3214107 0.479553 0.11242151 0.87302 0.1659056 0.15700382 0.22027594
00000000: f208 ac3e 12b7 2b3e b3f2 6e3e feea 703e
00000010: 83e3 a7be 12b8 c73e e1c5 85be 40eb d73e
00000020: 91c7 bebe 87c4 953e 4d08 833e b695 81be
00000030: 6597 bfbe 7995 05bf 9832 bb3d 6195 a43d
00000040: 5b05 1dbf 4235 833e c289 b63e d290 973e
00000050: a85b 5a3e 2053 f33e 2c36 903e 605f 80be
00000060: 3045 fe3e 44e8 ff3c 1c83 55be 0b3e cf3d
00000070: 59cc 5f3e 8ace 573e f46c b63e a0c6 a13e
00000080: 4c88 0abf 93f7 4d3d 00c2 f9bd 716a 343e
00000090: 7e2a fbbe 662a 8e3e 1015 f3be c78a b43e
000000a0: b5d8 ea3e 6d45 cf3d 01e8 f33e 7421 c1be
000000b0: 6dab f6be 52e3 a13e a2c3 b63e 7924 a53e
000000c0: 2ef8 c63e b451 4f3e 16ba e6be 0398 efbb
000000d0: 0ae8 f23e a2a6 bd3e b66a a13e 354a 863d
000000e0: 235a 953e 50cb 053f d3e6 c3be 2d65 8f3e
000000f0: bfe1 59bf 555f ac3e 7e57 a63e 1f8f 9b3e
00000100: bdf5 5c3e 53a8 823e 9162 a93e 007b c03e
00000110: 31bd 02be 2621 bc3e c928 06bf c2ae d43e
00000120: e9fe 77be c25d 003f 64a2 e33e 071c 62be
00000130: d5d4 18bf 77a8 38bf 0cb0 ba3c ab24 6a3e
00000140: 0dee debe 74ce b23e 455b c23e c098 dd3e
00000150: c0ba d13e 010d 053f 2a35 d63e 394f ccbe
00000160: 2a48 a73e 0602 b13d 4b59 a0be a73f 803e
00000170: 577b bf3e 5927 b73e efd1 003f 58d2 683e
00000180: 8807 0ebf 9705 b83e 4102 16be 07e7 a93e
00000190: 9a7a 2abf 29be 003f c906 1fbf 49c8 b93e
000001a0: 141e d93e 4d7a a53e 4bf1 893e bf27 c6be
000001b0: baac 15bf 5a1e 8d3e 1947 b93e e22a b83e
000001c0: fe80 003f 3d58 e83e 7791 ecbe 1aaa 973c
000001d0: ba70 b03e 13b8 383e bced d43e 0a79 493e
000001e0: 385e d83e 9aaf f83e 07b0 8cbe 3d2b 803e
000001f0: bdc1 54bf 6a82 af3e 10c8 ad3e 2723 b53e
00000200: 68d2 633e af86 dc3e 59ad 8c3e eea8 a03e
00000210: 67b0 023d 7499 eb3e da7e 15bf 1e63 d13e
00000220: 50fd c3be 9407 933e 6b5a 133f d47e 83be
00000230: 107a e7be d558 41bf d4c1 ebbd 1d80 943e
00000240: 76cb 0ebf e975 843e d58b ff3e e43f b43e
00000250: 95f2 8c3e 4fdd b33e 4bc2 cd3e 23da febe
00000260: 50a8 c63e 5fad a03e a59e 5abe d4cc 983e
00000270: b844 e73e 4825 b33e 8b0f a33e fadb da3e
00000280: 2a4f 27bf c1e0 e13e e86f 21be 70ab e43e
00000290: 4c5f 44bf 3b88 d13e 54d5 3ebf 38d0 893e
000002a0: 9e08 e03e 11a8 6b3e f950 e73e 2b00 9cbe
000002b0: 6263 04bf ec37 873e 0263 a83e 81d8 e83e
000002c0: ef1f b53e c579 ea3e 1324 cebe 37ff b2bc
000002d0: 44a3 bd3e 4716 ac3e 4115 933e 72e6 cf3e
000002e0: b6b6 993e 7123 bd3e ab2f fdbd 9327 dd3e
000002f0: 5705 6ebf 197b 0f3f 2cda ad3e 1583 723e
00000300: 1cb2 5abd 7de8 163e c95d cf3d 6b34 393d
00000310: eb1a 663e 36db cc3d 017e 03bf bcb9 27be
00000320: 8351 c63e 8c28 ddbd 6a52 713e 29a1 bf3e
00000330: b34d e63e cd74 2b3f 60aa 903b 02f7 133e
00000340: 4856 103f fcf9 3bbd 08d4 0abd 3b9e 7fbe
00000350: c5ae 713d e1a7 9ebe d0f0 223f a14b 06bf
00000360: 0509 a9bb ce1b 00bd b611 853e 0b63 71bc
00000370: 7d94 8b3e 3e29 553e f8fb 11be 735f c03d
00000380: b818 65be a45e e13e 5a14 b6bc c96c 843e
00000390: 0892 1ebf ba05 f5bd a490 233f 0bcd c8be
000003a0: 4181 88bd 9763 393e 1ae3 f43e 79b2 a93e
000003b0: c45c 16bf 5aa6 673e b49d 1e3f 0789 a6bd
000003c0: 62b9 083e 88a2 223e 3688 f43e 7815 d33d
000003d0: fa96 c8be 6da3 113f 4fac adbe f639 083f
000003e0: 48a5 03bf f18f a4be f987 f53e 403d e63d
000003f0: 3d7e 5f3f 28e3 293e 9cc5 203e 0490 613e

2.bias f4 [16]
0.3745382 0.4421469 0.4186369 0.049241636 0.042962607 -0.016590787 0.3872539 0.43847233
0.42000705 -0.15002191 0.19395213 -0.009962159 -0.022988062 0.3398361 0.037559025 -0.0027708744
00000000: 79c3 bf3e 1461 e23e 9357 d63e 99b1 493d
00000010: 8ff9 2f3d 67e9 87bc 2546 c63e 727f e03e
00000020: 2a0b d73e 589f 19be 639b 463e 5338 23bc
00000030: 7651 bcbc fffe ad3e 7ed7 193d 8f97 35bb

4.weight f4 [2, 16]
0.2981593 0.5040302 0.733299 -0.55854106 0.012560912 -0.54403937 0.5486372 0.5468682
0.54908013 -0.8835629 0.65520775 -0.77954954 -0.17486763 0.33891168 0.09118065 -0.5063044
0.72135 0.65853465 0.5802402 -1.0276682 -0.046902794 -0.58855873 0.41782346 0.4594231
0.65906966 -0.7270524 0.065354444 -0.58277947 -0.9828646 0.6921788 -0.15213798 0.114499636
00000000: 56a8 983e 2008 013f 7cb9 3b3f 8cfc 0ebf
00000010: 49cc 4d3c 2a46 0bbf 7d73 0c3f 8eff 0b3f
00000020: 8490 0c3f 2e31 62bf b2bb 273f 8f90 47bf
00000030: 8010 33be d585 ad3e ecbc ba3d 2a9d 01bf
00000040: 65aa 383f ba95 283f 9f8a 143f a28a 83bf
00000050: 251d 40bd c9ab 16bf f5ec d53e 8139 eb3e
00000060: cab8 283f 1b20 3abf 8dd8 853d 0931 15bf
00000070: 049d 7bbf a132 313f 0fca 1bbe c97e ea3d

4.bias f4 [2]
0.29225117 0.2998695
00000000: f2a1 953e 7f88 993e
