DQN/DQN/q_net_pixel.pth (torch, 918128 bytes, 8 tensors)

0.0.weight f4 [64, 12, 5, 5]
000000 40 3a 4f bd 75 13 5d bd a1 c4 49 bc 42 a9 0e 3d
       -0.05059266 -0.053973634 -0.012314946 0.034829386
000010 40 64 39 bd 97 31 e9 bc 75 9d 07 3d f4 cb c0 bc
       -0.04526162 -0.02846603 0.033109147 -0.023534752
000020 fd 09 ce bb 4e e2 68 bd 45 ab 40 3a ee ab a7 3c
       -0.006287812 -0.056856446 0.000734974 0.020467725
000030 3f e2 d8 bc 41 d0 46 3d 03 09 62 3d fa a9 29 bd
       -0.02647507 0.04853845 0.055184375 -0.041421868
000040 74 ed 2e bd f4 db 49 bd bf 12 49 3d 9c b0 2a 3d
       -0.04270692 -0.04928203 0.049090143 0.041672334
000050 cf 36 43 bd 1d 5b 6e bd 3f 3c 74 bc 07 69 8b bc
       -0.04765969 -0.05819236 -0.014906942 -0.017017854
000060 22 bf 26 3d ae 80 4b 3d 44 2b a9 bc 88 54 6d bd
       0.040709622 0.049683265 -0.020650513 -0.057941943
000070 7e 75 34 3c 73 d1 f8 bb 51 17 85 bc ca df 2b 3d
       0.01101434 -0.0075933277 -0.01624647 0.04196147
000080 f6 5b 46 3d 4d 04 11 3d 69 5e 99 bc e0 d6 58 bd
       0.048427545 0.035404492 -0.018721776 -0.052939296
000090 9f d2 01 bc c0 f1 ed bc f9 a6 44 3d 7b 5c 06 3d
       -0.007923751 -0.02904594 0.0480108 0.03280304
0000a0 8a 63 29 bd d6 bb be bb 99 38 e1 bb 04 c0 03 3c
       -0.041354693 -0.0058207316 -0.006873202 0.008041386
0000b0 22 43 cd 3c 7d bc 2e bd 2d fa d9 bb 40 42 a3 3a
       0.025056425 -0.042660225 -0.0066521377 0.0012455657
0000c0 c5 89 62 bb 00 0f 43 3d 15 03 c3 3c 44 c5 bb 3c
       -0.003456698 0.047621727 0.02380518 0.022921212
0000d0 90 d6 4c 3c de 4f c6 b8 e6 39 34 bc 48 e1 62 3c
       0.012502328 -9.456252e-05 -0.011000132 0.013847657
0000e0 c6 43 08 bd 18 ae 31 3d 36 71 5e bd 20 1a b7 3c
       -0.03326776 0.04337892 -0.054307185 0.022351325
0000f0 30 95 30 bd 4b dd ff 3c d9 ae 5d 3d 46 7b 48 bd
       -0.043111026 0.03123345 0.054121826 -0.048945688
000100 07 31 2d bd 55 26 06 3d 68 3e 43 bd 10 de 5d bd
       -0.042283084 0.0327514 -0.047666937 -0.054166853
000110 ba 5d 3a bc f7 d3 02 bc 10 ec f8 3c 2c 59 23 3d
       -0.011374885 -0.007985107 0.030386 0.039879963
000120 c2 fb 02 bd fb f1 2a bd 69 b4 01 bd 42 f0 85 bb
       -0.031978376 -0.041734677 -0.031666193 -0.004087479
000130 ec 76 bd 3c da 67 51 3d 85 48 4c 3d 8c 61 0b bd
       0.023127995 0.05112443 0.049873848 -0.034028575
000140 76 8c c4 bc 10 08 30 3c dc 73 3e bc 4d 24 21 3d
       -0.023992758 0.01074411 -0.011624303 0.03934126
000150 23 a5 3d 3d 8e 2a 96 bb 2e eb 5a 3d 74 b4 41 3d
       0.046300065 -0.0045827096 0.05344694 0.047291234
000160 6b e7 f0 bc 37 2f 2a bc 86 9c df bc b9 62 2e bc
       -0.029407224 -0.010387233 -0.027296316 -0.0106436545
000170 3e b2 75 3c de 8c 3b bd f0 9e 19 3b e4 95 07 3c
       0.0149961095 -0.04578864 0.0023440681 0.008275483
000180 ad 88 93 3c a7 bf 4b bd 3d 93 ea bb 27 92 e3 3a
       0.018009508 -0.04974332 -0.0071586655 0.0017362282
000190 c8 1e 41 bc c8 9d 6e 3c 52 5e ff bc 58 d0 1b 3c
       -0.011787124 0.014563985 -0.031172905 0.009510122
0001a0 cc ea 0c 3d 4a 1f 9e 3c 56 7f 39 3d 4e 75 21 bd
       0.034403607 0.01930203 0.045287453 -0.03941851
0001b0 8f 6e a9 bc 20 fe 64 bd 73 8c 69 3c 85 25 34 3c
       -0.020682601 -0.055906415 0.014254677 0.0109952735
0001c0 2a 42 34 bd 86 f8 42 3d bb 3b 1b 3d 56 d1 46 bd
       -0.04400841 0.04760029 0.03789876 -0.048539482
0001d0 38 df 20 ba cf 5b 0d 3d 80 6c 52 bc f0 56 08 3d
       -0.0006136778 0.034511384 -0.012843251 0.033286035
0001e0 f3 7e 00 3d 7b c5 81 bb 6f 9a 15 3d 4d b2 41 bc
       0.03137107 -0.003960309 0.036524232 -0.011822295
0001f0 c3 d7 65 bd 35 cb 76 bd 13 31 66 3d c3 4a 0c bd
       -0.05611397 -0.060252387 0.056199145 -0.034250986
000200 07 97 50 3d a4 f5 89 3c 56 19 2a 3d 50 0b 39 bd
       0.05092528 0.016840763 0.04152807 -0.045176804
000210 8f c4 4e bd d6 15 62 bc 83 13 1c bd 6f 80 1a bd
       -0.05048042 -0.013799151 -0.038104545 -0.03772014
000220 ce e6 f6 bb fa 0a cb 3c 25 90 3d 3d 58 f6 4c bd
       -0.0075348383 0.024785507 0.046280045 -0.05003962
000230 1c c2 38 3c 54 68 19 bd 4e 8a a9 3c 37 48 45 3c
       0.011276748 -0.03745301 0.020695832 0.012041143
000240 3a 14 18 3d 89 82 96 3c 56 ff a0 bc 21 28 07 bc
       0.037128665 0.01837279 -0.019653004 -0.008249314
000250 23 03 60 bd 65 95 5e 3d 9a b6 cf 3c 4b 6b 36 bd
       -0.05469049 0.054341692 0.025355626 -0.044535916
000260 cf b6 82 bc 07 6b bd bc 0e 10 1c 3c 7a e8 26 bd
       -0.01595631 -0.023122324 0.009525312 -0.04074905
000270 dd d4 90 3c 78 3d 46 3d 75 d7 56 3c 34 2c 51 bd
       0.017679626 0.048398465 0.013112892 -0.051067546
000280 58 82 e3 bb 1b fd bc 3b 00 f2 2e 3c e6 4e 1e 3d
       -0.0069430284 0.005767477 0.0106778145 0.038649462
000290 e3 59 bc bb c7 3a 02 3d ef 9c 36 bc d1 8d 8b bc
       -0.00574802 0.031794336 -0.011145814 -0.017035397
0002a0 fc 86 6c bc 7c eb 58 bd 85 c5 6c bd 49 21 e4 bc
       -0.01443648 -0.05295895 -0.057805557 -0.027847903
0002b0 88 67 04 3d 79 7d dc 3c 82 bf 47 3d 54 c3 01 bc
       0.032325298 0.026915299 0.04876662 -0.007920105
0002c0 75 a5 80 bc 81 df 0d 3d de 0c 06 bc be ff 69 3c
       -0.015703896 0.034636978 -0.008181779 0.014282165
0002d0 77 1c 5b 3c 75 fa 36 3d 85 a8 20 bc 86 65 54 3d
       0.013373486 0.04467245 -0.009805803 0.051854633
0002e0 cf 2a 03 3c a4 29 e9 3b 95 e7 45 bd eb 6b 6a bd
       0.008005812 0.0071155597 -0.048316557 -0.057231825
0002f0 8c 28 30 bd 23 b2 b4 3c e8 5a 62 bd d3 7f 66 3c
       -0.04300742 0.022057598 -0.055262476 0.014068562
000300 c3 b7 af 3c d4 40 0e bd 6c 1b 51 3d 5c fb 47 3d
       0.02144993 -0.034729794 0.051051542 0.0488237
000310 6a 33 03 3d 9a 30 5b 3d 68 9f 3e bd 4c f1 5c bc
       0.032031454 0.053513147 -0.04653874 -0.013485264
000320 01 22 42 3d 97 30 28 3c e1 0d ac bb 8b 4f 53 bd
       0.04739571 0.010265491 -0.005250678 -0.05158953
000330 44 5a 28 bd c3 9a 5a bd 42 db 07 bc 21 3a b7 bc
       -0.04110171 -0.05337025 -0.008292021 -0.022366585
000340 18 0f 1c 3d 14 68 24 3d 21 60 b5 bb 36 2d 2c bd
       0.038100332 0.04013832 -0.005535141 -0.042035304
000350 99 c8 33 bc 1b 5b f4 bc 4e f1 5c bd ac a3 e4 bc
       -0.010973119 -0.029828599 -0.053941064 -0.027910076
000360 3f 52 12 bd 5a e8 51 bd 4d 7a 58 bd 3f 9d d1 3c
       -0.035722967 -0.05124698 -0.05285101 0.025587676
000370 38 f3 fe 3b fe 2a 3a bd 42 a7 59 3d 1e f2 6a bd
       0.007780459 -0.045451157 0.053138025 -0.057359807
000380 45 45 04 bd 7b 31 09 3d 49 14 50 bb 6a 7e 00 3c
       -0.032292623 0.033494454 -0.0031750372 0.007842639
000390 a5 d3 40 3d 66 c5 fe 3b 60 5d 77 bd 17 23 57 3c
       0.04707684 0.0077749966 -0.060391784 0.013130925
0003a0 2c 6f 24 3d aa e1 d4 bb 95 a5 2e 3d 62 01 58 bd
       0.040145084 -0.006496628 0.04263838 -0.052735694
0003b0 fa 0c 13 bb 6d b8 31 3d cd d7 4e bd 56 df 2d 3d
       -0.0022438155 0.043388773 -0.050498772 0.042449318
0003c0 62 e1 39 bd d4 44 29 3c bd cf 2e bd 70 2e f0 3c
       -0.045380957 0.010331351 -0.042678583 0.029319018
0003d0 8a c2 fa bc 01 6e 2d 3b 8d 52 68 bd fa 4e 45 3d
       -0.030610342 0.0026463273 -0.05671935 0.04817102
0003e0 8b a8 5f bd 4d 43 dd 3c 35 26 db 3b c6 1f 28 3c
       -0.054604094 0.02700963 0.0066879042 0.010261482
0003f0 54 18 99 3a 6c 0c 00 bb 9b 29 46 bd a4 3c 08 bd
       0.0011680224 -0.0019538654 -0.04837952 -0.033260956

0.0.bias f4 [64]
000000 36 32 43 bd 58 4e c0 bc f0 21 40 3d 3d 7f 5f 3a
       -0.047655307 -0.023474857 0.046907365 0.0008525735
000010 7e e1 26 bd 8b 21 c0 3c ac 33 e7 bb ed 64 23 bd
       -0.04074239 0.023453495 -0.0070557203 -0.039891172
000020 e3 85 19 3a 33 9b e7 bb c0 13 fa ba d1 a8 96 bc
       0.00058564375 -0.0070680617 -0.0019079372 -0.018391045
000030 98 b3 0b bd 9a 99 91 3d ee 59 1c bd fa 36 49 3d
       -0.03410682 0.07109375 -0.0381717 0.049124695
000040 0c 7d 7f 3d b3 09 79 3c 50 9a 26 3c 09 0c 74 3d
       0.062375113 0.015200066 0.010168627 0.05958179
000050 45 42 a0 ba dc 0f e8 bc 19 ea 88 3c a1 74 19 bd
       -0.0012226781 -0.028327875 0.016713189 -0.03746474
000060 93 4e ac 3c b5 05 53 3c 2a d2 89 3c 61 6a 8d 3d
       0.02103356 0.012879779 0.016823847 0.06905056
000070 1f 70 fe 3c 95 07 5b 3c 2e 04 c1 3c 05 b4 38 3c
       0.031059323 0.013368507 0.023561563 0.011273389
000080 aa 3f 59 bd a2 42 a6 3c 41 e9 ed ba 6a 7f 61 3d
       -0.05303923 0.020295445 -0.001815118 0.055053152
000090 f6 12 ca bc 6d 09 27 3d a4 87 6f bb b5 08 63 3c
       -0.024667244 0.040780474 -0.0036549354 0.013857056
0000a0 dd 13 29 3d 19 1d b9 ba a0 c3 63 bd f7 ae 51 3d
       0.04127871 -0.0014123052 -0.055606484 0.05119225
0000b0 06 84 51 3b 08 44 fe bb c6 90 5a bd 33 5d 58 3c
       0.0031969561 -0.007759575 -0.053360723 0.013205814
0000c0 41 ca 89 3d d5 ad e6 3b 90 12 57 bd 1f e7 1b bb
       0.0672803 0.0070397654 -0.052507937 -0.0023788882
0000d0 a3 9b a1 bc 3f e5 1f bd db 8f 66 3d 30 b7 0a bd
       -0.019727534 -0.039036985 0.056289535 -0.033866107
0000e0 14 b3 1a bc 80 ce c7 3c b3 6b 8e 3c 97 e4 85 bc
       -0.00944211 0.024390459 0.01738534 -0.016344352
0000f0 35 dc 4c bd be 65 21 3d 6d a3 19 3d f5 6c ab bb
       -0.050014693 0.03940367 0.03750937 -0.0052314945

0.3.weight f4 [64, 64, 5, 5]
000000 d5 43 bd 3c 74 21 67 bb 7c 50 7d bc 40 85 6b 3c
       0.023103634 -0.0035267742 -0.0154610835 0.014375031
000010 c2 7a 0c 3b 7a e8 f4 3b 1f f5 57 3c 5c de cd 3a
       0.0021435474 0.0074740024 0.013181 0.0015706527
000020 7a 5a 5c 3c 43 48 6a 3c e6 e5 7e bb 87 fc 63 bc
       0.013449306 0.014299455 -0.0038894354 -0.013915188
000030 0c 97 4c 3c 5b 71 98 bc 2f d9 26 bc d8 f0 c9 bc
       0.012487184 -0.01860874 -0.010183617 -0.024650976
000040 65 a1 bd 3c b5 6b f3 3b 0a 11 9c bc c3 8e bc 3b
       0.023148248 0.007428611 -0.019051094 0.005754323
000050 e7 51 b4 3c f7 c8 05 3c 4c aa 80 bb 40 56 1a 3c
       0.02201171 0.0081655895 -0.003926551 0.009419978
000060 b0 c2 9f bc 99 66 54 bc 33 3d b5 bc 4e 2f 35 3b
       -0.019502014 -0.012963914 -0.022123909 0.0027646604
000070 c7 08 82 3c d2 48 be bc c3 2f fb 3a 7a 0b b4 3c
       0.015873326 -0.023228083 0.0019164014 0.021978129
000080 24 9f e6 bb 9a 13 18 3c 51 03 69 bc c7 61 2f bc
       -0.007038014 0.009282017 -0.014221982 -0.010704464
000090 c9 aa 6e 3b 99 68 24 bc c5 4f 0f 3c 87 ae 5c 3c
       0.0036417714 -0.010034704 0.008747046 0.013469345
0000a0 2c db a5 3c e3 fc 60 3b 67 af bf 3c db 16 f2 3b
       0.02024611 0.003433042 0.023399068 0.0073879785
0000b0 06 ab c6 3c 3f b6 10 3b 83 93 b4 3c 2d 3b 83 3c
       0.024251472 0.0022081283 0.022042995 0.016019428
0000c0 cd e3 49 b7 13 3b af 3c 87 24 32 bc 4e 1e 19 3c
       -1.2033573e-05 0.021390473 -0.010872967 0.009345604
0000d0 13 bc 9c bc aa 73 2d bc c0 9e 7d 3b 20 1f 69 bc
       -0.01913265 -0.0105866585 0.0038699359 -0.014228612
0000e0 a0 90 7b 3a 40 37 79 3b 80 45 a0 b9 60 68 2b bc
       0.0009596441 0.0038027316 -0.0003056936 -0.010461897
0000f0 76 9c 99 bc bc 01 e2 3b bb df b7 3c 98 cb 6e bb
       -0.018751364 0.0068971794 0.02244555 -0.003643727
000100 58 19 31 bb 9a 9e 2b 3c 42 7e 61 3c 6b 3f a8 3c
       -0.0027023163 0.010474825 0.013763012 0.020538053
000110 18 c0 63 3b 67 72 a8 3c d7 e9 c7 3c e7 3b 96 3c
       0.0034751948 0.020562364 0.024403496 0.01833911
000120 77 28 61 bc e0 c8 a0 bb 00 fd 3d 3a d5 f7 99 bb
       -0.013742558 -0.0049067587 0.0007247478 -0.0046987333
000130 b9 b3 4a 3c 21 94 83 bc c5 86 bc bc d3 3c 30 3c
       0.012371951 -0.016061844 -0.023013482 0.010756689
000140 ce 04 c0 3b 56 1b 80 bc ad 53 5f bc bf ef 81 bc
       0.0058599478 -0.015638035 -0.01363079 -0.01586139
000150 7b 9b 0c bc af 56 f1 3b 7a b7 a0 bc d9 a0 34 bc
       -0.008581991 0.00736507 -0.019618738 -0.011024677
000160 0b c5 7a bc f8 4b 8f 3c 93 ca af bc 47 1c b6 3c
       -0.015305768 0.01749228 -0.0214589 0.02223028
000170 2c 9a 65 ba ff c4 6b 3c 14 f4 e8 bc ba 56 67 3b
       -0.000875863 0.014390229 -0.028436698 0.0035299496
000180 f3 63 eb bc a4 a4 65 bc 5a 06 87 bc 58 e0 8d bc
       -0.028734183 -0.014016304 -0.01648252 -0.01731889
000190 86 f9 1b 3c b2 5a cc 3c 9a a4 0b 3c 97 80 8b 3c
       0.00951994 0.02494559 0.008523131 0.01702909
0001a0 87 61 31 3b 92 e9 7e bc 71 cc d4 bb 4a 9b e5 bb
       0.0027066187 -0.015558617 -0.006494098 -0.0070070373
0001b0 f4 35 5d bb 97 fa 76 bc ea f0 25 3c b6 50 cc 3c
       -0.0033754082 -0.015074394 0.010128239 0.02494083
0001c0 9c b1 a1 bc 44 95 c7 3c 94 a8 1f bc 70 4c 47 3c
       -0.019738011 0.024363168 -0.009744782 0.01216422
0001d0 9b 24 c6 bc e0 59 04 3b 77 08 31 bc b2 41 2a bc
       -0.024187377 0.0020195171 -0.010805241 -0.01039164
0001e0 52 b9 bd bc 2e fb b7 bb 4b 75 6f 3c 5d 8b ca bc
       -0.023159657 -0.0056146597 0.014615367 -0.024724657
0001f0 d6 c0 f4 3b 8e 0f 79 bc dd cd a7 3c 37 6b 77 3c
       0.007469277 -0.015201462 0.020483905 0.015101246
000200 31 c8 47 bb 03 21 87 3b 2d 05 40 3b 23 6f ce bc
       -0.0030484314 0.0041238084 0.002929996 -0.025199478
000210 b4 b6 3f bc 4e e5 d6 bc 6c 9d d0 bc e0 aa 78 bc
       -0.011701275 -0.026232388 -0.02546569 -0.0151774585
000220 bb fd 8c bc 39 81 13 3c 1a 9a 1f bc be 3b 60 bc
       -0.017210832 0.009002977 -0.0097413305 -0.013686119
000230 9b 63 9d bc 4d b8 d7 3a 06 34 26 3c 0d 83 af 3c
       -0.019212535 0.0016458124 0.010144239 0.021424795
000240 ad 6e 44 bb ef b0 d3 3b 21 21 8f bc db ab c1 bc
       -0.0029973194 0.006460301 -0.017471852 -0.023641517
000250 0e 97 78 bc 7e c2 a3 bc 96 10 c9 bc 7e 7e a6 bc
       -0.015172733 -0.019990202 -0.024544042 -0.020323988
000260 9d 88 0b bc 88 35 b2 3b 7e 0b 3b 3c 45 2e 90 bc
       -0.008516458 0.0054385103 0.011416314 -0.017600188
000270 f8 f9 1a 3a 4b 59 85 bc 91 50 99 bc 73 d5 31 bb
       0.0005911882 -0.01627793 -0.018715175 -0.0027135282
000280 70 2b 54 bc aa 75 bd bc 4e c7 a9 3c a8 e8 aa bc
       -0.012949809 -0.023127396 0.020724919 -0.020862892
000290 4f ae 8d 3c 3e 62 80 bc 7e d7 37 3c eb 1c 7a bc
       0.01729503 -0.015671846 0.011220811 -0.015265684
0002a0 1e d2 35 3c e6 33 0c 3c 19 76 d1 bc 3c 34 d6 3b
       0.011097459 0.008557295 -0.025569009 0.0065369885
0002b0 71 c0 ca bc 8b 92 a5 3c 6c 9e 92 bc bb 82 ec ba
       -0.024749966 0.020211479 -0.017897807 -0.0018044332
0002c0 22 81 aa bc 00 45 93 bc ab fe 76 3c 6f 57 66 bb
       -0.020813528 -0.017977238 0.015075366 -0.003514733
0002d0 d2 50 75 bc 73 bc 9e 3c 3e d6 c7 3c 96 8f c2 3c
       -0.014972882 0.019376969 0.02439415 0.023750108
0002e0 83 4c 94 bc 03 d3 cf 3a 7f bf b3 bc 00 a9 cd 3b
       -0.01810289 0.0015855733 -0.021941898 0.00627625
0002f0 58 ea 9f bc 94 c1 4c bc 47 2b 32 bc 13 35 f1 bb
       -0.019520923 -0.0124973245 -0.010874576 -0.0073610633
000300 f4 42 6e bc 44 3f fa 3b c3 5c 53 3c 60 ed 36 3c
       -0.01454233 0.0076369364 0.012900534 0.011164993
000310 24 45 9f bc f9 e1 1a 3b 69 1e 63 3c 7e 41 bb 3c
       -0.019442149 0.0023633225 0.013862231 0.022858378
000320 92 97 d1 3a 61 d8 4f bb 83 7b 0d 3b 49 c7 01 bc
       0.0015990606 -0.0031714665 0.0021588511 -0.007921048
000330 50 ea 6f bc 5a c2 b8 bc 66 0c 4d bb 36 70 96 bc
       -0.014643267 -0.022553612 -0.0031287908 -0.018364053
000340 e3 ae c4 3c 7e fc d1 bb 67 98 f3 bb 70 c6 b2 bc
       0.024009174 -0.0064082732 -0.0074339393 -0.021823138
000350 95 3f c0 ba f8 05 c9 bc 9e f3 84 bc 5d a9 9b bc
       -0.0014667386 -0.024538979 -0.016229447 -0.019001657
000360 46 87 49 3c c4 0d e1 3b 01 a2 1f 3c 68 12 2f 3c
       0.012300318 0.006868096 0.009743215 0.010685541
000370 4d a6 8d bc 4a 51 84 bc a9 67 c1 bc 4f 20 77 bb
       -0.017291212 -0.016152043 -0.023609 -0.0037708466
000380 80 86 8c bc 61 8c a9 b9 4b bb 4f 3c e7 cc 42 bc
       -0.017153978 -0.00032338782 0.0126789315 -0.011889673
000390 94 74 fb 3b 71 92 f2 3b ed 48 67 bc dc a7 72 3c
       0.0076738093 0.007402711 -0.014116508 0.014810529
0003a0 6f 4f c4 3b 68 97 ca 3b 1c 52 65 bb 77 f3 79 bc
       0.0059909145 0.0061826 -0.0034991568 -0.0152558
0003b0 d8 15 09 bc c7 67 3b bc 2b 12 99 3b 7a b1 bb bc
       -0.008367024 -0.011438317 0.0046713552 -0.022911776
0003c0 25 70 b6 3c 78 d4 81 bc c4 a9 5d 3c ad 31 b9 3b
       0.022270272 -0.015848383 0.013529245 0.005651674
0003d0 9c bf 07 3b 57 0c b7 bc c7 a5 02 bc 71 a6 30 bc
       0.0020713573 -0.022344751 -0.007974095 -0.01078187
0003e0 2b b9 b6 3c ef 93 4a 3c a8 8d 27 3c e3 6d 0b 3c
       0.022305092 0.012364372 0.010226645 0.008510086
0003f0 07 22 c5 3b 31 af da bc 4f 32 d5 bc da 1d 00 bc
       0.0060160193 -0.026694866 -0.026024966 -0.007819617

0.3.bias f4 [64]
000000 a2 63 49 bc a2 ac ed 3c 52 89 f6 3b 32 4d 8b 3a
       -0.012291821 0.029012982 0.007523694 0.0010627864
000010 3d 1e 37 bc ef 84 72 3d 93 6e a2 3c 5b 1c 66 3d
       -0.011176643 0.059208807 0.019828117 0.056179386
000020 4c 70 a5 3c a0 9f 9d bb 44 ac 0f 3c 36 ef 37 3c
       0.020195149 -0.0048102885 0.008769099 0.011226466
000030 e0 06 c4 ba b4 79 06 3d 3e b0 0c 3c 71 b6 f5 3b
       -0.0014955662 0.03283091 0.008586941 0.0074985554
000040 f1 c9 85 bc 0f b8 15 3d ed 95 df 3c 7d ef e7 3b
       -0.016331645 0.036552485 0.02729317 0.00707811
000050 cb cc 6e 3d b9 75 2b 3d 69 44 9a bc 2a 73 69 bc
       0.058300775 0.041860316 -0.018831449 -0.014248649
000060 3f 7d f7 bb 10 fb 86 bb 83 23 30 3d f3 4e 19 3d
       -0.0075527723 -0.0041192845 0.043002617 0.037428807
000070 d0 14 cf 3b 9f e6 c5 3c fd 10 43 3d a2 e0 ad bb
       0.0063196197 0.02415782 0.047623623 -0.0053063193
000080 06 72 bd bc ea aa 18 bc 9d 7c 70 3c 77 34 20 bb
       -0.02312566 -0.009318093 0.014678148 -0.0024445334
000090 8c b6 93 3c 94 91 3b 3d 03 71 f3 3c e8 f4 b6 3c
       0.018031381 0.04579313 0.029716974 0.022333577
0000a0 9e 4c dc bc f5 4f 94 3c 70 f1 8f bc 04 a3 d7 3c
       -0.026892003 0.018104533 -0.017571181 0.02632285
0000b0 5a f2 9c bc f5 c9 5b bc 4e 0b 27 3d ed 65 84 3b
       -0.019158531 -0.0134148495 0.040782265 0.004040471
0000c0 c0 91 76 3c fe 04 0d bd 7c 64 b3 bc c4 99 54 3d
       0.015049398 -0.03442859 -0.0218985 0.051904455
0000d0 c5 26 4e bc df 36 1c bc 24 91 a4 3c dc 50 a1 bc
       -0.012582486 -0.009534567 0.02008874 -0.019691877
0000e0 82 c9 58 3c 76 b5 f4 3a f5 01 df bc 7d 4b f8 bc
       0.013231637 0.0018669802 -0.027222613 -0.030309433
0000f0 9d 33 d0 3c 04 59 45 3d 34 c7 be 3c 81 74 a2 3b
       0.025415236 0.048180595 0.023288347 0.004957736

0.6.weight f4 [64, 64, 5, 5]
000000 cc 1b af 3c c6 e6 ba 3b 30 aa 54 3c 2c 82 b0 bb
       0.02137556 0.00570378 0.012980029 -0.0053866114
000010 67 a6 86 3c 89 1a a2 3c 15 85 89 bc a4 af 06 3a
       0.016436769 0.019788044 -0.016787091 0.0005137867
000020 11 40 7b bb 9a 9d 75 bc de d8 83 3c f5 64 7d 3c
       -0.0038337747 -0.014991188 0.016094621 0.015465965
000030 96 e0 a8 3c 65 a7 9c bc 3d 28 7c bc bc 46 99 3c
       0.020614903 -0.019122789 -0.015390453 0.018710487
000040 5c 74 9b bc 99 9f 2d bc ad 10 47 3c e9 db c1 bc
       -0.018976383 -0.010597133 0.012149972 -0.023664432
000050 50 d0 0b 3c 90 77 ef 3b 00 3b 76 bc bb 73 a2 3b
       0.008533552 0.007307954 -0.015028715 0.004957644
000060 29 03 c5 3c 74 0c ae ba e7 15 00 3d 32 f6 a8 bd
       0.024049358 -0.0013278858 0.031270888 -0.08250083
000070 31 7b fb 3d 23 07 73 bd d5 bb 3b bc 76 a4 ae 3c
       0.12279356 -0.059332978 -0.011458357 0.021318655
000080 12 c8 27 3d 35 f4 45 3d 62 e9 70 bd a0 03 08 bd
       0.040962286 0.048328597 -0.05881632 -0.033206582
000090 f0 b7 c2 bb 13 2c db bc 0b 8b aa bb c4 53 8f 3a
       -0.005942337 -0.026754415 -0.0052045635 0.0010934998
0000a0 e9 ef fd bc 9f 6a b7 bd 34 c2 48 bd 10 4f 30 bd
       -0.030998187 -0.08955883 -0.04901333 -0.04304415
0000b0 86 27 67 bd cd ff f8 bc bb b2 ae bd 36 e1 73 bd
       -0.056434177 -0.030395413 -0.08530184 -0.05954095
0000c0 88 82 a9 bd 88 06 37 bc fc ba b3 bc e7 06 4c bc
       -0.0827685 -0.011170991 -0.021939747 -0.0124528175
0000d0 77 80 ed 3b c7 7a 68 3d 8c 17 e2 bb 71 43 2a bc
       0.00724798 0.056757715 -0.0068997797 -0.010392056
0000e0 b6 94 ca bc 28 51 97 3c 40 96 b9 3d 97 59 82 3b
       -0.024729114 0.018471316 0.09061861 0.003977965
0000f0 8c d6 24 3e 95 d1 93 3c 9b 8c 17 be 79 c4 6e bd
       0.16097468 0.018044272 -0.1479973 -0.05829284
000100 9f 1c bc 3d b9 f0 dc bc 39 8d b4 bc 96 a3 56 bd
       0.091851465 -0.026970254 -0.022039996 -0.0524021
000110 e1 6c 86 bd 48 c3 c2 bc c1 22 94 bb 61 bd 4d bd
       -0.06563736 -0.023774758 -0.0045207446 -0.050229434
000120 fc 00 69 bd f0 c1 6d bd 9c ea e4 bc 95 cb ee bb
       -0.056885704 -0.05804628 -0.027943902 -0.0072874525
000130 6a ac 96 bc a3 6c 1b bc 05 2e 5d 3c 9a 9c 01 3c
       -0.01839276 -0.00948635 0.013499741 0.007910872
000140 85 7b af bb 3b fc 4f 3c ea 33 66 bc 75 5e a6 bb
       -0.005355301 0.012694414 -0.014050463 -0.005077178
000150 57 59 77 3a d0 ef ed 3b 1a b6 ea bb c9 3e 56 bc
       0.0009435615 0.007261254 -0.0071628215 -0.013076493
000160 e0 8d ac bc 34 81 b5 3b a8 64 2e 3b aa 88 c6 3c
       -0.021063745 0.005539084 0.0026610289 0.024235088
000170 ae 73 b7 bc 42 2e a0 3c 4b a5 8e bc fa 27 9c 3b
       -0.022394028 0.019553307 -0.017412802 0.0047655078
000180 9d 94 ae bc c7 a5 84 3b e2 19 a8 3b ff ff b2 3c
       -0.021311099 0.0040480825 0.0051300386 0.021850584
000190 76 99 1b 3c 59 1f ae bc d4 fa bc bb 5f 74 01 bc
       0.009497037 -0.021255182 -0.0057672057 -0.00790128
0001a0 57 69 26 3c 06 21 aa 3c dc 3f 8b 3c 78 40 b6 bb
       0.010156951 0.0207677 0.016998224 -0.0055618845
0001b0 56 20 ac 3c bb e4 d4 3a da 2e c8 bc 83 1d 7a bc
       0.021011513 0.0016242483 -0.024436403 -0.015265825
0001c0 9b 4a b8 3c 67 1e 97 3b cf 57 93 3b cf 4f a9 b9
       0.022496512 0.0046117785 0.0044965516 -0.00032293654
0001d0 50 19 ca 3c 1b db 23 3b c3 9b f3 3b 0e bc 2c bc
       0.024670273 0.0025002423 0.0074343397 -0.010542883
0001e0 e4 4b ca bc 64 f2 8a bb c8 e7 2f 3c 7b e1 ac bb
       -0.02469439 -0.004240321 0.010736413 -0.005275903
0001f0 8e 3f b4 bc 8a 86 bd 3c cc 57 35 3d ef dd 7a bc
       -0.022002961 0.023135442 0.044273183 -0.015311702
000200 5f 5f 41 bd 0f 41 b3 3c a5 c4 cf ba 1c 2f 18 bd
       -0.047210094 0.021881608 -0.0015851451 -0.037154302
000210 3f ab 4d bd 93 ed 12 3d fa 0e 00 3d b1 c7 cb 3a
       -0.05021214 0.0358711 0.031264283 0.0015547184
000220 21 d7 89 3c 1e c7 d4 bc 0d fb 0f 3c af 79 69 3d
       0.016826214 -0.025973853 0.0087878825 0.057000812
000230 5f d2 17 bc 26 07 03 bd 2d 2c a6 bd 25 fb f6 bc
       -0.009266465 -0.03198924 -0.081138946 -0.030149052
000240 7c 54 87 bd 8b 34 d1 bb 6c fb 46 bd 96 03 94 bd
       -0.06607911 -0.0063844374 -0.04857962 -0.072272465
000250 8e 64 85 bd 31 29 3d bd 98 03 37 3d 9a e4 d0 3d
       -0.0651332 -0.04618186 0.04468116 0.10199852
000260 55 d0 92 bd 98 70 22 3d 67 d9 5d 3b 14 d8 51 3d
       -0.071686424 0.03965816 0.0033851506 0.05123146
000270 fa 0a 30 3d d4 2e 03 be 53 1e 55 3c 31 d1 ae bb
       0.042979218 -0.12810832 0.013007718 -0.005334996
000280 02 5b 1d bd 77 d0 fb 3c df 82 68 bc c2 cf f2 3d
       -0.03841687 0.030739052 -0.014191358 0.11856033
000290 80 97 7f bc 2a 6e 79 bc 84 0a 9d bc de 38 d4 bb
       -0.015600085 -0.015224019 -0.019170053 -0.0064765057
0002a0 e9 ee 27 bc 7e 14 8b 3c 07 49 62 3b 77 90 5c 3c
       -0.010249832 0.016977545 0.003452839 0.0134621775
0002b0 d2 72 1d bc 8b 98 2a 3c f8 de 6b bb 57 d5 fd 3c
       -0.009609895 0.010412346 -0.0035991054 0.030985517
0002c0 66 4b 17 3d 91 5a 20 3d a3 dd ec bc 80 d3 e1 3c
       0.03693714 0.03914887 -0.028914278 0.027566671
0002d0 02 0d 40 3d 95 81 12 3d 89 ea 6d 3d ad 2b 26 bd
       0.046887405 0.03576811 0.058085 -0.040568996
0002e0 b5 05 8c bc c5 2f a7 3c 44 70 a2 3c 11 df 87 3b
       -0.017092565 0.02040852 0.019828923 0.0041464646
0002f0 10 82 be 3c f7 9d d0 3c 69 b5 ef bc 80 4c 16 bd
       0.023255378 0.025465949 -0.029261308 -0.03669405
000300 73 83 64 bd db 60 94 bd 61 3c 56 bd 9b 1f 16 bc
       -0.055789422 -0.07245036 -0.052303676 -0.009162809
000310 a8 f8 6b bd d4 e6 24 bd d8 06 90 bd e4 2f 61 bd
       -0.057610184 -0.040259197 -0.07032555 -0.054977313
000320 89 47 b0 bb 7d 56 01 3c 95 a3 90 bb 83 c4 2a bc
       -0.0053796214 0.007894156 -0.0044140317 -0.010422829
000330 24 17 bd 3c 8e 06 38 bc 41 41 6b 3b 1e bb 2a bc
       0.023082323 -0.0112320315 0.0035897049 -0.010420589
000340 53 ce 20 3c 1d 92 17 37 de f8 8b 3c e3 1c 2d bc
       0.0098148165 9.034321e-06 0.017086443 -0.010565969
000350 f6 aa 0d bc a0 19 c3 bb 58 5f 6d bb 65 64 b6 ba
       -0.008646717 -0.0059539825 -0.003622016 -0.0013915418
000360 02 28 6d 3c 12 37 43 3c 5f d0 c0 bc 9c ea 07 bb
       0.014474871 0.011914985 -0.02353686 -0.0020739203
000370 bc 32 05 3c dc 15 a8 3b 61 d6 af bc 1c f9 da 3b
       0.008129772 0.005129559 -0.021464529 0.006682528
000380 b8 fa 50 3c bc c3 33 bd 57 21 b4 bc a0 dc d7 3c
       0.0127550885 -0.04388784 -0.021988554 0.02635032
000390 f6 2b 84 3d f4 0b c6 3c 2a a5 0a 3c 98 e4 0c bd
       0.064536974 0.024175622 0.00846223 -0.03439769
0003a0 89 45 4f 3a b6 9e 81 3d 1e bb df 3b 1b d2 f1 bc
       0.0007906785 0.063291 0.006827726 -0.029519131
0003b0 42 e6 f5 3c 5d 51 34 3b 68 14 ba 3a 38 aa db 3c
       0.030017022 0.0027514317 0.0014196755 0.026814565
0003c0 70 eb 32 bd 34 cc 9f bd 3e c0 fa bc 81 78 83 bd
       -0.043681562 -0.078026205 -0.030609246 -0.06419469
0003d0 92 1e 9f bc ec 08 b7 bc 92 2c 47 bd b0 9d 56 bd
       -0.019423757 -0.022343121 -0.04862649 -0.052396476
0003e0 7e 4e 43 bd fc 55 62 bd 41 94 57 3c dc 52 b2 bc
       -0.047682278 -0.055257782 0.013157905 -0.021768026
0003f0 98 f8 a6 bc 3c 30 81 3b aa 0c 88 bc 73 55 ae bb
       -0.02038221 0.0039425176 -0.016607601 -0.005320245

0.6.bias f4 [64]
000000 5f f3 f0 3b 80 5e 98 3b cc dc 90 3d 39 62 d2 3d
       0.007353231 0.004649937 0.07073364 0.10272641
000010 88 2b 0e bc 25 22 9a 3b de 69 e6 3c 02 91 8f bc
       -0.008677371 0.0047037774 0.028126653 -0.0175252
000020 28 23 43 bc 01 4d d8 bc 01 4b 80 3b a3 3f 7d bb
       -0.011910237 -0.026403906 0.003915191 -0.0038642667
000030 df 57 b5 3d 97 51 3f bb df 00 d2 bc 0a 23 b9 bb
       0.08854651 -0.0029192918 -0.025635181 -0.005649929
000040 6a c7 1a 3d 4f bf 01 3d 82 c6 ab bc a5 bf 6c bd
       0.037787832 0.031676587 -0.02096868 -0.057799954
000050 f2 15 15 3c ea 49 95 3d 74 2e 9e bc 59 d2 6c bc
       0.00909947 0.072894886 -0.01930926 -0.014454448
000060 3f ed 50 bd f3 3b 97 3d de 62 ad bc d7 54 ab bc
       -0.051007506 0.07384481 -0.021165308 -0.020914478
000070 94 ce 0e bd 3d 5f 84 3d b3 ab 38 3d f2 1a 7c 3d
       -0.034864977 0.06463478 0.04508562 0.061549135
000080 6a 91 72 3d eb b9 06 bc c9 5e e4 3b 27 63 5d bc
       0.05922071 -0.008223037 0.006969307 -0.013512409
000090 4c 9d b2 bb 32 de 66 bd 15 e3 05 bd ff e4 df bb
       -0.00545088 -0.056364246 -0.032687265 -0.0068327184
0000a0 b3 73 c5 bb ff 69 75 3b e1 73 d7 3b 8d 11 e4 bc
       -0.0060257553 0.0037447212 0.006575093 -0.0278404
0000b0 0d 7b 15 bd ff b5 80 3d b4 ab 35 bb 15 da c2 3c
       -0.036494303 0.06284713 -0.0027720751 0.02378563
0000c0 ea c2 e3 bc 39 8e f3 bb 18 30 30 bd d5 39 b5 3d
       -0.027802903 -0.0074327257 -0.043014616 0.08848921
0000d0 5f d5 24 3d ed d0 4c 3d d3 36 7c 3d 46 c6 58 bb
       0.04024255 0.050003935 0.061575722 -0.0033077165
0000e0 f8 57 99 3c e2 13 d1 3c 35 c3 91 3d d6 ce 84 bb
       0.018718705 0.025522176 0.07117311 -0.004052977
0000f0 89 47 bb 3d 0c c5 22 bd 21 ee 23 3d 79 7d a0 3c
       0.091445036 -0.0397387 0.04002202 0.01959108

1.0.weight f4 [2, 2240]
000000 53 9c e6 3a e8 2a 5b 3b 5d 0e ad 3c 57 81 97 3b
       0.0017594196 0.0033442322 0.021125013 0.004623573
000010 2e 30 9f 3c e8 57 97 3a 1a 39 ca bb 9e 23 71 3a
       0.019432154 0.0011546584 -0.006171358 0.0009198728
000020 e6 0a ac 3c 83 a8 72 bc 72 63 8f 3c 83 c8 a6 bc
       0.02100129 -0.014810684 0.017503474 -0.020359283
000030 a3 4f 60 ba 54 b6 19 3b 2e e3 3c bc 8d a9 a8 bc
       -0.00085567887 0.0023454623 -0.011528773 -0.02058866
000040 7e fa 64 bc 95 b7 93 bc ba b9 10 3c bc d9 6d 3b
       -0.013975738 -0.018031875 0.008833343 0.003629311
000050 ba bc 8b 3c 77 1c 34 3c 06 4c 69 3c c8 f0 bf bc
       0.017057765 0.010993115 0.014239317 -0.023430243
000060 c7 53 13 3c fc 77 98 3c 17 3c 01 bc 9f 05 cb 3a
       0.008992142 0.0186119 -0.007887862 0.0015489346
000070 08 91 cd 3c eb 9f 1a bd ff e3 7f bd 83 ae 49 3d
       0.02509357 -0.037750166 -0.062473293 0.049238693
000080 ee 31 d9 b8 b2 49 48 bd 4d c4 d7 3c a1 a8 29 bc
       -0.000103566665 -0.048898406 0.02633872 -0.010355146
000090 94 84 41 3c a0 a8 58 bb e8 99 0d bc 2d b6 a5 3c
       0.011811394 -0.0033059493 -0.008642651 0.02022847
0000a0 45 52 89 bb 8b 0f 3f bc 65 c0 8d bb 5c eb 78 bc
       -0.0041907155 -0.011661421 -0.0043259137 -0.015192833
0000b0 c1 77 a3 3a 24 62 1e bc 7e 50 16 3c 4d 20 41 3c
       0.0012471603 -0.009666953 0.009174464 0.011787486
0000c0 17 3e 14 3c 02 b1 a2 bc 2c 51 21 3a 9d af ef 3b
       0.0090480065 -0.019859795 0.0006153758 0.007314636
0000d0 11 e4 7d bc 0c 1e 8f bc e8 13 26 3c 03 36 74 3b
       -0.01549627 -0.017470382 0.010136582 0.0037263639
0000e0 1a 62 01 3c 79 a9 b8 b9 60 47 1a bc cd 6b 74 bb
       0.007896924 -0.00035221482 -0.009416431 -0.00372957
0000f0 6e b1 57 bc 1d b4 78 bc 62 74 b0 3b 6e 48 24 bc
       -0.013164861 -0.015179661 0.0053849677 -0.010027034
000100 ce f4 4c 3c 1d d4 61 3c ad 04 94 bc 0d 3f bc ba
       0.012509538 0.013783482 -0.018068636 -0.0014362052
000110 d0 99 28 3b ed f2 de bb 48 80 ba ba 14 37 fe 3c
       0.0025726445 -0.0068038614 -0.0014228905 0.031032123
000120 9b e4 d5 3c fc 2f 85 3a a5 5c d7 3c bf 7f db 3b
       0.026109984 0.0010161395 0.026289294 0.006698578
000130 b5 e6 16 3d 6b 82 94 3c 9e 94 ef 3b 26 20 16 3d
       0.036841113 0.018128594 0.0073114177 0.036651753
000140 7b 01 0b 3d 7f 99 a9 bc aa 25 c5 bc 8d 3c e6 39
       0.03393696 -0.020703075 -0.024065811 0.00043914132
000150 19 d1 c7 3c db 7d 02 bd a3 73 92 3d 22 1b 3a bd
       0.024391698 -0.031858306 0.07150962 -0.045436032
000160 12 47 a3 bc 1d 23 db bc fe b9 b2 3c 76 a3 1f 3d
       -0.01993135 -0.026750142 0.021817204 0.038974248
000170 a6 39 ce bd 23 ff 83 be 9b 9a f1 bd 16 48 8e 3c
       -0.10069589 -0.2578059 -0.11797067 0.017368358
000180 8d af 99 bd 82 b4 c2 3c 63 4b 0a 3d 17 20 dd 3c
       -0.07504187 0.023767713 0.0337633 0.02699284
000190 ab 78 d5 3c 47 1d 0f bb d5 80 bd 3c d4 4d 07 3d
       0.026058516 -0.002183752 0.023132721 0.033033207
0001a0 fb d1 94 3c 8f bc bb 3c c0 8c 2e 3d 1a c6 38 3a
       0.018166533 0.02291706 0.0426147 0.00070485624
0001b0 28 e5 1d 3b fd fe 27 bc 48 c7 1f 3d df bd 07 3d
       0.0024092887 -0.010253665 0.03900841 0.03314006
0001c0 d5 f3 74 3c 0b e6 38 3c e0 ba 4f ba 49 67 5b bc
       0.014950712 0.011285315 -0.000792427 -0.013391324
0001d0 db 12 35 3d 96 fc 6d 3c 0c 1b a6 3c d0 88 6d b9
       0.044207435 0.014525553 0.020276569 -0.00022653048
0001e0 69 98 5c bc 59 08 4e 3d 71 bb 61 bd 14 ff 94 bd
       -0.013464072 0.05030093 -0.0551104 -0.07275215
0001f0 bb 5b bc bc 83 e2 2e 3d 10 01 32 3c 0d e1 42 bd
       -0.02299296 0.042696487 0.010864511 -0.047577906
000200 90 8d c5 be 1c 51 0e be a8 18 fd bc f8 40 f3 3c
       -0.38584566 -0.13898128 -0.030895546 0.029694065
000210 b7 90 8d 3c 0d 3a e8 3c da 1e 73 3a a2 ae 89 bb
       0.01728092 0.028347993 0.00092743116 -0.004201726
000220 03 64 07 3d 1c 06 ad 3c a1 4c db 3c 42 58 15 3d
       0.033054363 0.021121077 0.026769938 0.036461122
000230 28 f8 05 3c 5a a8 9a bc b6 23 89 3d 8d 70 85 bc
       0.008176841 -0.018879104 0.066962644 -0.01628902
000240 c4 3e e9 bc 0c 88 57 bc bd 28 a1 39 10 41 8b 3b
       -0.028472312 -0.013154995 0.00030738665 0.0042496994
000250 40 64 52 bd f5 85 95 3b 85 3d 50 bc 20 2b 5a 3c
       -0.051365137 0.004563088 -0.01270998 0.013315946
000260 f3 91 ac 3c a7 78 34 bb c4 1d d2 3d fc 68 0c 3e
       0.021065688 -0.0027537735 0.102595836 0.13711923
000270 d0 a7 cc 3c f9 9a 2b bc a5 44 21 bc da 4a 11 bd
       0.024982363 -0.01047396 -0.009843026 -0.035471775
000280 d0 07 b0 3c 35 13 9c bc 8f b4 63 bc cc e7 b0 3c
       0.0214881 -0.019052127 -0.013898029 0.021594904
000290 07 d5 f1 3c 4d ec f2 3c 82 9f 0e bc 01 d1 31 3c
       0.029520525 0.029653693 -0.008705022 0.010853053
0002a0 28 af f5 bc 05 75 e2 3a 04 9e d7 3c 77 8c 1a 3d
       -0.029990748 0.0017277306 0.026320465 0.037731614
0002b0 c6 6c 9a bd 6f 54 3a bd c7 6b 03 bd 2d 0e da bb
       -0.07540278 -0.04549068 -0.032085206 -0.006654522
0002c0 68 a7 81 3c a5 58 dd 3c 34 62 17 3d 73 1d 9d 3c
       0.015826896 0.027019808 0.03695889 0.019179082
0002d0 02 98 9f 3b ea 95 15 bb 92 d8 be 3c 2f 92 54 3b
       0.0048704157 -0.0022824951 0.023296628 0.0032435765
0002e0 f0 e6 6e 3d 1d 47 59 bd 39 94 6b bc b9 40 8f 3c
       0.058325708 -0.053046335 -0.014378601 0.017486917
0002f0 dd 51 7e 3c e6 ca 61 bc 9d 4d 1a 3e ca 42 32 bd
       0.015522447 -0.013781285 0.1506867 -0.043520726
000300 6f 71 5d bc f9 0d 1a 3e c0 b0 0e 3e fe 6f 8e 3c
       -0.013515814 0.15044393 0.13934612 0.017387386
000310 bf 0b ed bd 75 9d aa be 69 80 00 3e a9 35 f4 bf
       -0.11574506 -0.33323255 0.12548985 -1.9078876
000320 34 81 ab bd 69 e0 b8 3a ca 6d dd bd f9 cf 25 bc
       -0.08374253 0.0014104965 -0.10811956 -0.010120385
000330 61 22 e6 3d 66 27 0c 3e 28 2f 6c 3b fc 35 0a bd
       0.11237026 0.13686904 0.003603885 -0.03374289
000340 c0 a6 76 3d f1 00 22 3e 23 15 e8 bb 7d 86 38 3c
       0.06021762 0.15820672 -0.007082598 0.011262533
000350 52 7a de bb 55 d2 bf bb cc 67 51 bb 1e d4 80 bb
       -0.006789484 -0.005853931 -0.0031952737 -0.0039315363
000360 be 9a 43 ba 9f 59 8c 3a 9e 5f 18 3c 44 b0 3e 3c
       -0.0007461718 0.0010707862 0.009300141 0.011638705
000370 96 d5 1c 3c 44 9b ee bb f0 c4 03 bc 84 4c 90 3b
       0.009572407 -0.0072816927 -0.008042559 0.0044036526
000380 ea aa 4b 3c 6c 4a 54 3c 29 c0 a8 3c e7 d5 55 3b
       0.012430886 0.012957197 0.020599442 0.0032628716
000390 77 b5 8e bc b8 64 12 bb 74 42 62 3b a1 6c 33 bc
       -0.017420514 -0.0022337865 0.0034524472 -0.010951192
0003a0 7d db e6 3b 1e 01 ed 3b a5 be 89 3c ef ba 8b bb
       0.007045208 0.007232799 0.01681454 -0.0042642276
0003b0 a6 52 a0 bc 7e 05 fa ba ac c8 5e bc ec 31 f2 3c
       -0.01957066 -0.0019075123 -0.013597649 0.02956482
0003c0 c4 df 86 be 1b c4 f5 bc b3 65 da bc ee 04 a9 3c
       -0.26342595 -0.030000737 -0.026659822 0.020632233
0003d0 70 a8 9d 3d be 2d 31 3b b3 09 40 bb 80 d9 c6 3d
       0.076981425 0.002703532 -0.0029302656 0.097094536
0003e0 4f 92 37 bb 1d 4a b4 bc e2 9b 68 3d 68 34 cf bb
       -0.002801079 -0.022007996 0.056789286 -0.006323386
0003f0 6d bd 26 be 7d b0 cc 3d e7 51 a4 bd 21 16 79 bd
       -0.16283198 0.099946 -0.08023434 -0.06081212

1.0.bias f4 [2]
000000 8c f3 af 3d dd dc e1 3d
       0.08591375 0.110284545
