DQN/DQN/q_net.pth (torch, 7796 bytes, 6 tensors)

0.weight f4 [64, 4]
0	0xbe9cd8e0	-0.30634212
1	0xbf0e95e8	-0.5569749
2	0xbf565c01	-0.83734137
3	0xbf16b1fd	-0.5886534
4	0xbeccd915	-0.4000937
5	0xbd64a9cc	-0.055825993
6	0xbf609da8	-0.87740564
7	0xbd05b1e2	-0.032640345
8	0xbf35a186	-0.7094959
9	0x3e3ce5b3	0.18446998
10	0x3f83ccb7	1.0296849
11	0x3ea26233	0.31715545
12	0xbf91c427	-1.1387986
13	0xbf32638e	-0.6968316
14	0xbf4b91fb	-0.79519624
15	0xbe996b29	-0.2996457
16	0xbf927b4f	-1.1443881
17	0xbf052085	-0.52002746
18	0x3f357d18	0.70894
19	0xbe4e13ad	-0.20124693
20	0xbcebd9d6	-0.028790396
21	0xbe4450f3	-0.19171505
22	0x3ce4887d	0.027897114
23	0xbdfb5345	-0.12271742
24	0x3f4f1b60	0.80901146
25	0xbe47ea50	-0.19522977
26	0xbf6b1e53	-0.91843146
27	0xbdcef19f	-0.10104679
28	0x3e72100e	0.23638937
29	0xbf423bb8	-0.75872374
30	0xbfd2234d	-1.6417023
31	0xbf20e1bc	-0.62844443
32	0xbec57619	-0.38566664
33	0xbec67d83	-0.38767633
34	0xbe64d391	-0.22346331
35	0xbea4b0ad	-0.32166043
36	0xbf1452f0	-0.5793905
37	0xbe0f1ee8	-0.13976634
38	0xbf8ec033	-1.1152405
39	0xbe8b0989	-0.27155712
40	0xbf35cfbb	-0.71020097
41	0xbc4bad24	-0.012431417
42	0x3faa2503	1.3292545
43	0x3e4d5de7	0.20055352
44	0xbf444cd1	-0.7667971
45	0x3e8b21c4	0.271742
46	0x3f840b6e	1.0315988
47	0x3f031313	0.5120098
48	0xbe371d90	-0.17882371
49	0x3e0baef0	0.13640952
50	0xbeaf0300	-0.34181976
51	0xbd017468	-0.031605154
52	0xbec1b737	-0.37835094
53	0xbddfe9c6	-0.109332606
54	0xbd09f3dd	-0.03367983
55	0x3dee16ea	0.11625464
56	0x3ea3e00e	0.32006878
57	0xbe22b78b	-0.15890329
58	0xbf0105de	-0.5039958
59	0xbe7f4400	-0.24928284
60	0xbd20a46f	-0.039219316
61	0x3eb34091	0.35010198
62	0xbe97926a	-0.29603893
63	0x3e7e3653	0.2482541
64	0xbde5146d	-0.111855365
65	0x3e121163	0.14264445
66	0xbf092a6b	-0.5358035
67	0x3e470c77	0.19438349
68	0xbf89e098	-1.0771666
69	0xbe48a281	-0.1959324
70	0x3f245290	0.6418848
71	0xbd06baaf	-0.03289288
72	0xbf1e22cc	-0.61771846
73	0xbf232e07	-0.6374211
74	0xbe93ffdb	-0.2890614
75	0xbf002d7a	-0.5006939
76	0x3d85dff0	0.06536853
77	0x3e97ba88	0.296345
78	0x3eb6b2de	0.3568334
79	0x3f17e5fa	0.5933529
80	0xbeba0f2b	-0.36339697
81	0x3e2611c2	0.16217712
82	0x3f67d0e3	0.9055311
83	0x3c726f22	0.014797004
84	0x3ed6b4af	0.41934726
85	0xbeffc568	-0.49955297
86	0xbf9ed801	-1.2409669
87	0xbf06689a	-0.5250336
88	0x3f188627	0.595797
89	0xbf0d3b1d	-0.55168325
90	0xbf35283d	-0.70764524
91	0xbebb01f6	-0.36524934
92	0x3ec01448	0.37515473
93	0xbe6964a4	-0.22792298
94	0x3e48c2af	0.19605516
95	0xbdba1274	-0.09085551
96	0x3e400e26	0.18755397
97	0xbe858e34	-0.26085055
98	0x3e23c1b0	0.15991855
99	0xbd6a0c54	-0.057140663
100	0xbeb72b24	-0.357751
101	0x3ed157fc	0.4088744
102	0x3ea827c8	0.3284285
103	0x3e8a6414	0.2702948
104	0xbeb37130	-0.35047293
105	0xbe47be0d	-0.19506092
106	0x3ed0d638	0.40788436
107	0xbdde7e51	-0.10863937
108	0xbe570a11	-0.20999934
109	0xbe5a0513	-0.21290998
110	0x3e1ebc05	0.15501411
111	0xbe07ed87	-0.13274203
112	0xbe20a404	-0.15687567
113	0x3ed24d06	0.4107439
114	0x3ecbf7a2	0.39837366
115	0x3e2f3291	0.17109133
116	0xbf20f1f9	-0.6286922
117	0x3dbbc29b	0.091679774
118	0x3eb8717f	0.3602409
119	0x3c53929d	0.012913373
120	0x3f04eb7f	0.5192184
121	0x3e3153fb	0.17317192
122	0x3eb6d64f	0.3571038
123	0x3d51f37a	0.051257588
124	0xbe46f8f8	-0.19430912
125	0x3ecf2764	0.4045974
126	0x3eb43b42	0.3520146
127	0x3d7d23a7	0.06180158
128	0x3f5a1507	0.85188335
129	0x3cbde933	0.023182487
130	0x3d0e1918	0.0346919
131	0xbc930151	-0.017944964
132	0x3f0f4976	0.5597147
133	0x3e49d496	0.19710001
134	0xbf1dddca	-0.6166655
135	0xbd226efa	-0.039656617
136	0x3e1345ec	0.14382142
137	0x3ef82f3b	0.48473534
138	0x3fca3c7c	1.5799708
139	0x3ef9f736	0.4882142
140	0xbe0d4fff	-0.13800047
141	0xbe500d77	-0.20317636
142	0x3ebd57f9	0.3698118
143	0xbca386ad	-0.01996168
144	0x3e3177f7	0.17330919
145	0x3e4c5a8c	0.19956416
146	0x3f614cc8	0.88007784
147	0x3e10f82f	0.14157175
148	0x3f8227ac	1.0168357
149	0x3e4583c6	0.19288549
150	0xbe88714b	-0.26648936
151	0x3dcbf1c1	0.0995822
152	0x3f5a2c59	0.8522392
153	0x3d95c96a	0.07313807
154	0xbe76b3ee	-0.24092075
155	0x3da661a9	0.08124096
156	0x3df41397	0.11917799
157	0xbebc3c71	-0.36764863
158	0xbf64c9a0	-0.89370155
159	0xbe86ea16	-0.26350468
160	0x3ebfcb35	0.37459722
161	0xbe87cda3	-0.26524076
162	0x3ec1409b	0.37744603
163	0xbbaaf706	-0.005217436
164	0xbe5e9559	-0.21736659
165	0x3eaeb9d6	0.34126157
166	0xbd8cbbff	-0.06871795
167	0x3e7e1041	0.24810888
168	0x3ee4afdf	0.4466543
169	0xbe0bbfa1	-0.1364732
170	0x3e3315b3	0.17488746
171	0x3e38c001	0.18041994
172	0xbf0e126f	-0.5549688
173	0xbebfbaa0	-0.3744707
174	0xbcacc788	-0.021091238
175	0xbe849369	-0.25893715
176	0xbef850f2	-0.48499256
177	0xbee7db4a	-0.45284492
178	0x3f392ef4	0.7233727
179	0xbe9ad307	-0.30239126
180	0xbe507607	-0.20357524
181	0xbebe63a5	-0.37185398
182	0x3d35df1f	0.044402238
183	0xbdd2ae86	-0.10287194
184	0x3e540c9b	0.20707934
185	0x3edcb764	0.43108666
186	0xbdbfcd8c	-0.09365377
187	0x3e81e6ff	0.2537155
188	0xbce50e7d	-0.02796101
189	0xbefad14c	-0.48987806
190	0xbe8f2f92	-0.2796598
191	0xbed8028b	-0.4218944
192	0xbf4db301	-0.80351263
193	0xbeaadde0	-0.33372402
194	0x3fd8d072	1.6938612
195	0x3f62d101	0.88600165
196	0xbf298564	-0.6621916
197	0xbed1f1e8	-0.41004872
198	0xbfacfb54	-1.3514199
199	0xbe9da80c	-0.30792272
200	0x3ea62217	0.32447883
201	0xbe070c77	-0.13188349
202	0xbe7b29fb	-0.24527733
203	0x3ddc358e	0.10752402
204	0x3f2ff5b8	0.6873431
205	0x3f17d0ea	0.5930315
206	0x3dff35a0	0.124614
207	0x3ed1559a	0.4088562
208	0x3e078311	0.13233592
209	0x3d1c6886	0.03818562
210	0xbe809547	-0.2511389
211	0xbe2ab0e5	-0.16669042
212	0x3db8be35	0.09020654
213	0x3f066c79	0.52509266
214	0x3ff030d7	1.8764905
215	0x3ef38afe	0.4756698
216	0xbee47806	-0.4462282
217	0x3e19c32d	0.1501586
218	0x3de76904	0.11299327
219	0x3e33b929	0.17551102
220	0xbefc38fd	-0.4926223
221	0x3dafd432	0.08585395
222	0x3d45da4f	0.0483039
223	0x3e39d693	0.1814826
224	0x3ed24c7d	0.4107398
225	0xbd8e3cae	-0.069451675
226	0x3e0f035d	0.13966127
227	0xbe79a8cf	-0.24380802
228	0x3f48c90b	0.7843177
229	0x3e79b576	0.24385628
230	0xbfcb6b8d	-1.5892197
231	0xbdfa5b19	-0.12224407
232	0xbdae6052	-0.085144654
233	0xbf283a62	-0.65714085
234	0xbe43dd7a	-0.19127455
235	0xbecb6ee6	-0.39733046
236	0xbda29ba8	-0.07939845
237	0x3e376c08	0.17912304
238	0xbe9167e4	-0.28399575
239	0x3dda1cc0	0.10650015
240	0xbddab337	-0.10678714
241	0xbd593a62	-0.053034194
242	0xbee21006	-0.4415285
243	0x3df1159a	0.11771698
244	0xbf230cb5	-0.63691264
245	0xbde1faf6	-0.11034195
246	0xbeba9a17	-0.36445686
247	0xbbe88ad8	-0.0070966296
248	0x3bf9c571	0.007622414
249	0x3e86013b	0.26172814
250	0xbe391575	-0.18074591
251	0x3eac8155	0.33692423
252	0x3d9b0c00	0.07570648
253	0x3e49ff70	0.19726348
254	0xbeb8a692	-0.36064583
255	0xbd84cd8d	-0.06484518

0.bias f4 [64]
0	0xbe9732ec	-0.29531038
1	0x3ed21c72	0.41037327
2	0x3ef1d8e4	0.47235787
3	0x3edb76a4	0.42863953
4	0xbe9344dd	-0.28763476
5	0x3f0502e6	0.5195755
6	0x3f1256c8	0.5716367
7	0xbf0f206d	-0.5590885
8	0x3f1f2b04	0.6217501
9	0xbe71fec1	-0.23632337
10	0x3f1337c2	0.57506955
11	0xbf018f37	-0.50609154
12	0x3f254340	0.6455574
13	0x3ed2036e	0.41018242
14	0x3f4b0774	0.7930825
15	0x3f39a441	0.72516257
16	0x3ead72f4	0.33876765
17	0x3f49ac5f	0.7877864
18	0xbe196c1b	-0.14982645
19	0xbefab5f1	-0.48966935
20	0x3f06c3a0	0.5264225
21	0xbed0277b	-0.4065512
22	0x3e8e79a9	0.27827194
23	0xbe2eaf21	-0.17058994
24	0x3f15eceb	0.58564633
25	0xbee56bc0	-0.4480877
26	0x3ec8bb38	0.39205337
27	0x3f7a25a0	0.9771366
28	0x3f21f9f8	0.6327205
29	0x3f25ec94	0.64814115
30	0x3f2211e9	0.6330858
31	0x3f1a776f	0.6033849
32	0xbed3c0ec	-0.41358125
33	0xbf119940	-0.56874466
34	0xbe121a7b	-0.14267914
35	0xbe913655	-0.28361765
36	0xbf184071	-0.5947333
37	0xbe00c283	-0.125742
38	0x3f2989cf	0.66225904
39	0x3f2fc4e7	0.68659824
40	0xbef4be55	-0.47801462
41	0x3f1365ac	0.57577014
42	0x3f841dc0	1.0321579
43	0x3f37c722	0.7178823
44	0xbeac44ff	-0.3364639
45	0xbf5dad3a	-0.8659245
46	0x3f3ef636	0.7459444
47	0x3ea60425	0.32425037
48	0x3de30f4a	0.110869005
49	0x3d86d513	0.065836094
50	0x3f3aa7a0	0.72912025
51	0xbec808f1	-0.39069322
52	0x3f623b29	0.8837152
53	0xbedff274	-0.43739665
54	0x3e93d6b7	0.28874752
55	0x3f06b385	0.52617675
56	0x3f6de178	0.92922163
57	0x3e938d46	0.2881872
58	0xbed4c371	-0.4155536
59	0xbea07ab6	-0.3134362
60	0x3f412474	0.7544625
61	0xbe71e65f	-0.23623036
62	0x3f3d071a	0.7383896
63	0x3f79fa3e	0.97647464

2.weight f4 [16, 64]
0	0xbd1c833b	-0.03821109
1	0xbf583888	-0.8446126
2	0xbf480ff9	-0.7814937
3	0xbe399b56	-0.18125662
4	0xbd72e20e	-0.059297614
5	0xbf46d6b1	-0.77671343
6	0x3e5dfe17	0.21678959
7	0x3f6e70a9	0.93140656
8	0x3e967289	0.29384258
9	0x3ede8236	0.43458718
10	0x3f203772	0.625846
11	0xbc4f7c50	-0.012663916
12	0xbcb1f9f9	-0.021725642
13	0x3f9176e6	1.136441
14	0x3e57bec4	0.21068865
15	0xbdb04a32	-0.08607902
16	0x3dfc863e	0.12330292
17	0xbe208ae4	-0.15677983
18	0x3db90d34	0.090357214
19	0x3ee49702	0.4464646
20	0x3e38ce8b	0.1804754
21	0x3f50c715	0.81553775
22	0x3f21d7eb	0.6322009
23	0x3f15d8f1	0.5853415
24	0xbd18e9b3	-0.037332248
25	0xbdbc717a	-0.092013314
26	0xbd85b615	-0.0652887
27	0xbfa376a2	-1.2770579
28	0xbd1ff298	-0.039049715
29	0xbe5d9921	-0.21640445
30	0x3e266f02	0.16253284
31	0x3df6539d	0.12027667
32	0x3f4ad857	0.7923636
33	0x3fd52ceb	1.6654333
34	0x3e87d18c	0.2652706
35	0x3d31cf68	0.04341069
36	0x3fc851c1	1.5649949
37	0x3f18ac72	0.5963813
38	0x3f241d3a	0.64107096
39	0xbe64d3bd	-0.22346397
40	0x3f8f1ad8	1.1180067
41	0xbebf9983	-0.37421808
42	0xbe933807	-0.28753683
43	0x3eb76a6f	0.3582339
44	0xbc33e79f	-0.010980516
45	0x3d688f6e	0.05677741
46	0x3d3fd00a	0.04682926
47	0xbd415f6d	-0.047210146
48	0xbd76b741	-0.06023336
49	0xbdba2417	-0.09088915
50	0x3e3c0b0e	0.18363592
51	0x3f1faab1	0.6236983
52	0x3e550385	0.20802124
53	0x3ebb2518	0.36551738
54	0xbd94cd6c	-0.072657436
55	0x3e8c895a	0.2744854
56	0x3e027213	0.12738828
57	0x3ee143ed	0.43997136
58	0x3d253d3c	0.0403416
59	0x3df082e0	0.117437124
60	0xbeb87ab3	-0.36031112
61	0xbd785594	-0.06062849
62	0xbea1c782	-0.31597525
63	0x3e0f111f	0.13971375
64	0x3cfc2968	0.030781463
65	0x3ca372d5	0.019952217
66	0xbcfd43a5	-0.030916044
67	0xbdc47e26	-0.095943734
68	0xbd0bc2ed	-0.034121443
69	0xbde42c96	-0.111413166
70	0xbd6ba52e	-0.057530575
71	0xbc850690	-0.01623848
72	0xbe0bd358	-0.1365484
73	0xbc86e824	-0.016468115
74	0xbde7a5eb	-0.11310943
75	0xbcec7f28	-0.028869227
76	0xbb1acfeb	-0.0023622464
77	0x3db2e7b3	0.08735599
78	0x3d03d6a8	0.032187134
79	0xbdbec81c	-0.093155116
80	0xbd34f848	-0.044182092
81	0x3dba0c26	0.090843484
82	0xbd1ef524	-0.038808003
83	0x3dcfa1e2	0.101382986
84	0x3d92d77b	0.07170006
85	0xbdd4f1c0	-0.10397673
86	0x3dc0283c	0.09382674
87	0x3b002d80	0.001955837
88	0xbc820377	-0.015870793
89	0xbd1a19f8	-0.037622422
90	0x3db30267	0.087406926
91	0xbdf41e0c	-0.119197935
92	0xbd27976a	-0.040915884
93	0x3d15a955	0.03653844
94	0x3d91858a	0.07105549
95	0xbde3f29a	-0.11130257
96	0x3d05e9f9	0.032693837
97	0xbda02254	-0.078190476
98	0xbddbd70e	-0.10734378
99	0x3cc07e98	0.023497865
100	0x3deb4d1c	0.11489317
101	0xbd30b081	-0.043137077
102	0xbe057c2b	-0.13035648
103	0x3c28dfe4	0.010307286
104	0x3c054700	0.0081346035
105	0xbe057965	-0.1303459
106	0xbd5979ef	-0.0530948
107	0xbb2eecc4	-0.0026691416
108	0xbce47eb0	-0.02789244
109	0x3dc5561a	0.09635563
110	0xbe120df2	-0.14263132
111	0x3cfa2dca	0.030539412
112	0x3cc105bf	0.02356231
113	0x3d921089	0.0713206
114	0xbd952b5a	-0.07283659
115	0xbe0f47d8	-0.1399225
116	0x3d249d45	0.040189046
117	0x3df6af6a	0.12045176
118	0xbdf09cdb	-0.11748668
119	0xbde2fa3a	-0.11082883
120	0xbd84c8be	-0.06483601
121	0xbd5d072c	-0.053961918
122	0xbd5cf6b8	-0.053946227
123	0x3d9ca1e6	0.07648067
124	0xbdcf7006	-0.10128789
125	0x3dff7a38	0.12474483
126	0xbd4b00e1	-0.049561385
127	0x3d9cc277	0.07654279
128	0xbf544401	-0.82916266
129	0x3ecf02a4	0.40431702
130	0x3e414161	0.18872596
131	0xbe1fc463	-0.1560226
132	0xbf3a1dd0	-0.7270174
133	0x3eccb368	0.39980626
134	0x3ea85f87	0.32885382
135	0xbff23c07	-1.8924569
136	0x3ee096ab	0.4386495
137	0xbfb43832	-1.407965
138	0x3ece908b	0.40344653
139	0xbfa027dc	-1.2512164
140	0x3ecf759d	0.4051942
141	0x3d502c99	0.05082378
142	0x3efb980d	0.49139443
143	0x3eba06f1	0.3633342
144	0x3e3a3667	0.18184815
145	0x3e8caee3	0.27477178
146	0xbf5665f6	-0.8374933
147	0xbed8c511	-0.4233785
148	0x3e94c322	0.29055125
149	0xbf1a866e	-0.60361373
150	0x3f16b73f	0.5887336
151	0xbf4243a4	-0.7588446
152	0x3ef57419	0.47940138
153	0xbb9b7640	-0.004744321
154	0x3e1c9a47	0.15293227
155	0x3ed85b09	0.42256954
156	0x3ec6c293	0.38820323
157	0x3e692cd9	0.22771014
158	0x3ee1ecea	0.44126064
159	0x3efa4bff	0.48886105
160	0xbecd3217	-0.40077278
161	0xbfd64b5a	-1.6741745
162	0xbea9c580	-0.33158493
163	0x3f03a4c5	0.51423293
164	0xbfd9377c	-1.6970057
165	0x3e01192a	0.12607256
166	0x3eb2a7a2	0.3489352
167	0x3e95e474	0.29275858
168	0xbf99d1d9	-1.2017165
169	0x3ed56a1d	0.4168252
170	0x3eb9c04c	0.36279523
171	0x3e9248d1	0.2857118
172	0xbe6c2dc7	-0.23064338
173	0xbde6a30b	-0.11261567
174	0x3f078f2e	0.5295285
175	0x3e7f4c63	0.24931483
176	0xbe84bc53	-0.2592493
177	0xbf3f6e5c	-0.7477777
178	0x3e8752f6	0.26430482
179	0xbeb0ce76	-0.34532517
180	0x3eaf9079	0.3428991
181	0xbf92286d	-1.1418587
182	0x3e4868ee	0.19571277
183	0x3e8e9c21	0.27853492
184	0x3f006df2	0.50167763
185	0x3e88b673	0.26701698
186	0xbf5d4819	-0.8643814
187	0xbd652438	-0.055942744
188	0x3eab282d	0.3342909
189	0xbece047f	-0.40237805
190	0x3ebe67fd	0.37188712
191	0x3eef6ae8	0.4676125
192	0xbbf07aed	-0.0073388726
193	0xbed20891	-0.4102216
194	0x3dde5da3	0.108577035
195	0xbe589f4c	-0.21154517
196	0x3e6e48a9	0.23269905
197	0xbe9dde56	-0.3083369
198	0xbdab29d9	-0.08357591
199	0x3f276399	0.6538635
200	0xbe688e7d	-0.22710605
201	0x3eaa3762	0.3324538
202	0x3f7444bc	0.9541738
203	0x3fa9fd8b	1.32805
204	0xbec5e96c	-0.3865465
205	0x3e8e0461	0.27737716
206	0xbf47a352	-0.7798358
207	0xbc74576b	-0.01491342
208	0x3c0a6e57	0.008449159
209	0x3e9d8f20	0.30773258
210	0x3e5e7c69	0.21727146
211	0x3f22364c	0.633641
212	0x3f0d2254	0.55130506
213	0xbe775106	-0.24152002
214	0xbfaa869f	-1.3322333
215	0x3efed3ec	0.4977106
216	0xbe1ff422	-0.15620473
217	0xbd0780d0	-0.03308183
218	0x3e9e4b85	0.30916992
219	0x3c1bb793	0.009504217
220	0x3ea233a1	0.31680015
221	0x3eb0cbe4	0.34530556
222	0x3d0f35d3	0.03496344
223	0x3ed1c220	0.40968418
224	0x3e56f77b	0.20992844
225	0x3f544ac3	0.8292658
226	0x3f36c67f	0.7139663
227	0xbd242a98	-0.040079683
228	0x3ff8ab58	1.942729
229	0x3e5d48d8	0.21609819
230	0x3da30d14	0.07961479
231	0xbfd8ceb7	-1.6938084
232	0x3f639ffd	0.88916
233	0x3e54f0ff	0.20795058
234	0x3dabb12a	0.08383401
235	0x3d5ce2ac	0.05392711
236	0x3e8a7706	0.27043933
237	0x3eeb7620	0.4598856
238	0x3d8107f8	0.06300348
239	0xbe34b62a	-0.17647615
240	0x3ea315cf	0.31852576
241	0xbd6091b1	-0.054826442
242	0xbcd94ab0	-0.026524872
243	0x3e83fd8d	0.2577938
244	0xbed25b03	-0.4108506
245	0x3fa33db3	1.2753204
246	0x3f17565c	0.5911615
247	0x3ecaf9e3	0.39643773
248	0xbe9abc34	-0.30221713
249	0xbe825351	-0.2545419
250	0x3ed1101a	0.40832597
251	0x3d0c4bd4	0.034252003
252	0xbdf0a864	-0.11750868
253	0x3ea816a6	0.3282978
254	0x3e4ad3d5	0.1980737
255	0xbecfb3cc	-0.40566862

2.bias f4 [16]
0	0xbdb47843	-0.088120006
1	0x3dc568af	0.096391074
2	0x3eae4497	0.34036705
3	0xbce5bf09	-0.028045194
4	0x3eaacfb3	0.33361587
5	0x3f078b5d	0.52947026
6	0x3f0e9b18	0.55705404
7	0x3f1ac7db	0.60461205
8	0x3f0973df	0.5369243
9	0x3eb24374	0.34817088
10	0x3edc5c34	0.43039095
11	0xbd50c35d	-0.050967563
12	0xbd56de24	-0.052457944
13	0x3ec700a0	0.38867664
14	0x3ee7ae93	0.45250377
15	0x3ee35b02	0.4440537

4.weight f4 [2, 16]
0	0xbf8e01b7	-1.1094273
1	0xbd8d884b	-0.069107614
2	0x3f43a858	0.7642875
3	0xbfc0ca12	-1.5061667
4	0x3f58ce13	0.84689444
5	0x3f3488bc	0.7052114
6	0x3ebff3c5	0.3749067
7	0x3effaf63	0.49938497
8	0x3f405690	0.75132084
9	0x3f56b9d3	0.83877295
10	0x3f5751fb	0.8410947
11	0xbf7af850	-0.98035145
12	0xbda1cef4	-0.07900801
13	0x3f4279f4	0.75967336
14	0x3f29b395	0.66289645
15	0x3f150ffa	0.58227503
16	0xbf890324	-1.0704083
17	0xbd988e4f	-0.07449018
18	0x3f561744	0.8362925
19	0xbfeff27f	-1.8745879
20	0x3f05ae07	0.5221867
21	0x3f1d4d82	0.6144639
22	0x3f63da77	0.89005226
23	0x3f47f7ac	0.7811229
24	0x3f608f4e	0.87718666
25	0x3f4291b5	0.7600358
26	0x3e9e3038	0.30896163
27	0xbf64dc80	-0.89398956
28	0xbe137fce	-0.14404222
29	0x3f5cdb0a	0.8627173
30	0x3f0615cb	0.52377003
31	0x3f22e03d	0.6362341

4.bias f4 [2]
0	0x3ed27d7a	0.41111356
1	0x3ecb2b8c	0.3968166
